{
    "storage": "NeuralHashv3b-current.espresso.weights",
    "analyses": {},
    "properties": {},
    "format_version": 200,
    "layers": [
        {
            "pad_r": 0,
            "fused_relu": 0,
            "fused_tanh": 0,
            "debug_info": "",
            "pad_fill_mode": 0,
            "pad_b": 0,
            "pad_l": 0,
            "top": "stem/MobilenetV3/Conv2d_0/Conv2D",
            "blob_weights": 1,
            "K": 3,
            "stride_x": 2,
            "name": "stem/MobilenetV3/Conv2d_0/Conv2D",
            "has_batch_norm": 0,
            "type": "convolution",
            "n_groups": 1,
            "pad_t": 0,
            "stride_y": 2,
            "has_biases": 0,
            "C": 16,
            "bottom": "image",
            "weights": {},
            "Nx": 3,
            "pad_mode": 1,
            "pad_value": 0,
            "Ny": 3,
            "n_parallel": 1
        },
        {
            "name": "stem/MobilenetV3/Conv2d_0/InstanceNorm/instancenorm/add_1",
            "training_momentum": 0.8999999761581421,
            "training_eps": 9.999999974752427e-07,
            "C": 16,
            "training": 1,
            "training_instancenorm": 1,
            "type": "batchnorm",
            "blob_batchnorm_params": 3,
            "bottom": "stem/MobilenetV3/Conv2d_0/Conv2D",
            "debug_info": "",
            "weights": {},
            "top": "stem/MobilenetV3/Conv2d_0/InstanceNorm/instancenorm/add_1"
        },
        {
            "bottom": "stem/MobilenetV3/Conv2d_0/InstanceNorm/instancenorm/add_1",
            "alpha": 3,
            "operation": 2,
            "weights": {},
            "fused_relu": 0,
            "debug_info": "",
            "top": "stem/MobilenetV3/Conv2d_0/add",
            "type": "elementwise",
            "name": "stem/MobilenetV3/Conv2d_0/add",
            "beta": 0
        },
        {
            "bottom": "stem/MobilenetV3/Conv2d_0/add",
            "alpha": 0,
            "operation": 119,
            "weights": {},
            "fused_relu": 0,
            "debug_info": "",
            "top": "stem/MobilenetV3/Conv2d_0/Relu6",
            "type": "elementwise",
            "name": "stem/MobilenetV3/Conv2d_0/Relu6",
            "beta": 6
        },
        {
            "bottom": "stem/MobilenetV3/Conv2d_0/Relu6",
            "alpha": 0.1666666716337204,
            "operation": 3,
            "weights": {},
            "fused_relu": 0,
            "debug_info": "",
            "top": "stem/MobilenetV3/Conv2d_0/mul",
            "type": "elementwise",
            "name": "stem/MobilenetV3/Conv2d_0/mul",
            "beta": 0
        },
        {
            "bottom": "stem/MobilenetV3/Conv2d_0/InstanceNorm/instancenorm/add_1,stem/MobilenetV3/Conv2d_0/mul",
            "alpha": 1,
            "operation": 1,
            "weights": {},
            "fused_relu": 0,
            "debug_info": "",
            "top": "stem/MobilenetV3/Conv2d_0/mul_1",
            "type": "elementwise",
            "name": "stem/MobilenetV3/Conv2d_0/mul_1",
            "beta": 0
        },
        {
            "pad_r": 0,
            "fused_relu": 0,
            "fused_tanh": 0,
            "debug_info": "",
            "pad_fill_mode": 0,
            "pad_b": 0,
            "pad_l": 0,
            "top": "stem/MobilenetV3/Bottleneck_1/expand/Conv2D",
            "blob_weights": 5,
            "K": 16,
            "name": "stem/MobilenetV3/Bottleneck_1/expand/Conv2D",
            "has_batch_norm": 0,
            "type": "convolution",
            "n_groups": 1,
            "pad_t": 0,
            "has_biases": 0,
            "C": 16,
            "bottom": "stem/MobilenetV3/Conv2d_0/mul_1",
            "weights": {},
            "Nx": 1,
            "pad_mode": 1,
            "pad_value": 0,
            "Ny": 1,
            "n_parallel": 1
        },
        {
            "name": "stem/MobilenetV3/Bottleneck_1/expand/InstanceNorm/instancenorm/add_1",
            "training_momentum": 0.8999999761581421,
            "training_eps": 9.999999974752427e-07,
            "C": 16,
            "training": 1,
            "training_instancenorm": 1,
            "type": "batchnorm",
            "blob_batchnorm_params": 7,
            "bottom": "stem/MobilenetV3/Bottleneck_1/expand/Conv2D",
            "debug_info": "",
            "weights": {},
            "top": "stem/MobilenetV3/Bottleneck_1/expand/InstanceNorm/instancenorm/add_1"
        },
        {
            "bottom": "stem/MobilenetV3/Bottleneck_1/expand/InstanceNorm/instancenorm/add_1",
            "weights": {},
            "mode": 0,
            "debug_info": "",
            "top": "stem/MobilenetV3/Bottleneck_1/expand/Relu",
            "type": "activation",
            "name": "stem/MobilenetV3/Bottleneck_1/expand/Relu",
            "beta": 0
        },
        {
            "pad_r": 0,
            "fused_relu": 0,
            "fused_tanh": 0,
            "debug_info": "",
            "pad_fill_mode": 0,
            "pad_b": 0,
            "pad_l": 0,
            "top": "stem/MobilenetV3/Bottleneck_1/depthwise/depthwise",
            "blob_weights": 9,
            "K": 16,
            "stride_x": 2,
            "name": "stem/MobilenetV3/Bottleneck_1/depthwise/depthwise",
            "has_batch_norm": 0,
            "type": "convolution",
            "n_groups": 16,
            "pad_t": 0,
            "stride_y": 2,
            "has_biases": 0,
            "C": 16,
            "bottom": "stem/MobilenetV3/Bottleneck_1/expand/Relu",
            "weights": {},
            "Nx": 3,
            "pad_mode": 1,
            "pad_value": 0,
            "Ny": 3,
            "n_parallel": 1
        },
        {
            "name": "stem/MobilenetV3/Bottleneck_1/depthwise/InstanceNorm/instancenorm/add_1",
            "training_momentum": 0.8999999761581421,
            "training_eps": 9.999999974752427e-07,
            "C": 16,
            "training": 1,
            "training_instancenorm": 1,
            "type": "batchnorm",
            "blob_batchnorm_params": 11,
            "bottom": "stem/MobilenetV3/Bottleneck_1/depthwise/depthwise",
            "debug_info": "",
            "weights": {},
            "top": "stem/MobilenetV3/Bottleneck_1/depthwise/InstanceNorm/instancenorm/add_1"
        },
        {
            "pad_r": 0,
            "debug_info": "",
            "pad_fill_mode": 0,
            "pad_b": 0,
            "pad_l": 0,
            "size_x": 90,
            "is_global": 1,
            "top": "stem/MobilenetV3/Bottleneck_1/gap/Mean",
            "top_shape_style": 0,
            "stride_x": 1,
            "avg_or_max": 0,
            "average_count_exclude_padding": 1,
            "type": "pool",
            "name": "stem/MobilenetV3/Bottleneck_1/gap/Mean",
            "pad_t": 0,
            "stride_y": 1,
            "bottom": "stem/MobilenetV3/Bottleneck_1/depthwise/InstanceNorm/instancenorm/add_1",
            "weights": {},
            "pad_mode": 0,
            "size_y": 90,
            "pad_value": 0
        },
        {
            "pad_r": 0,
            "fused_relu": 1,
            "fused_tanh": 0,
            "debug_info": "",
            "pad_fill_mode": 0,
            "pad_b": 0,
            "pad_l": 0,
            "top": "stem/MobilenetV3/Bottleneck_1/Bottleneck_1/Conv/Conv2D",
            "blob_weights": 15,
            "K": 16,
            "blob_biases": 13,
            "name": "stem/MobilenetV3/Bottleneck_1/Bottleneck_1/Conv/Conv2D",
            "has_batch_norm": 0,
            "type": "convolution",
            "n_groups": 1,
            "pad_t": 0,
            "has_biases": 1,
            "C": 4,
            "bottom": "stem/MobilenetV3/Bottleneck_1/gap/Mean",
            "weights": {},
            "Nx": 1,
            "pad_mode": 2,
            "pad_value": 0,
            "Ny": 1,
            "n_parallel": 1
        },
        {
            "pad_r": 0,
            "fused_relu": 0,
            "fused_tanh": 0,
            "debug_info": "",
            "pad_fill_mode": 0,
            "pad_b": 0,
            "pad_l": 0,
            "top": "stem/MobilenetV3/Bottleneck_1/Bottleneck_1_1/Conv_1/Conv2D",
            "blob_weights": 19,
            "K": 4,
            "blob_biases": 17,
            "name": "stem/MobilenetV3/Bottleneck_1/Bottleneck_1_1/Conv_1/Conv2D",
            "has_batch_norm": 0,
            "type": "convolution",
            "n_groups": 1,
            "pad_t": 0,
            "has_biases": 1,
            "C": 16,
            "bottom": "stem/MobilenetV3/Bottleneck_1/Bottleneck_1/Conv/Conv2D",
            "weights": {},
            "Nx": 1,
            "pad_mode": 2,
            "pad_value": 0,
            "Ny": 1,
            "n_parallel": 1
        },
        {
            "bottom": "stem/MobilenetV3/Bottleneck_1/Bottleneck_1_1/Conv_1/Conv2D",
            "alpha": 3,
            "operation": 2,
            "weights": {},
            "fused_relu": 0,
            "debug_info": "",
            "top": "stem/MobilenetV3/Bottleneck_1/Bottleneck_1_1/Conv_1/add",
            "type": "elementwise",
            "name": "stem/MobilenetV3/Bottleneck_1/Bottleneck_1_1/Conv_1/add",
            "beta": 0
        },
        {
            "bottom": "stem/MobilenetV3/Bottleneck_1/Bottleneck_1_1/Conv_1/add",
            "alpha": 0,
            "operation": 119,
            "weights": {},
            "fused_relu": 0,
            "debug_info": "",
            "top": "stem/MobilenetV3/Bottleneck_1/Bottleneck_1_1/Conv_1/Relu6",
            "type": "elementwise",
            "name": "stem/MobilenetV3/Bottleneck_1/Bottleneck_1_1/Conv_1/Relu6",
            "beta": 6
        },
        {
            "bottom": "stem/MobilenetV3/Bottleneck_1/Bottleneck_1_1/Conv_1/Relu6",
            "alpha": 0.1666666716337204,
            "operation": 3,
            "weights": {},
            "fused_relu": 0,
            "debug_info": "",
            "top": "stem/MobilenetV3/Bottleneck_1/Bottleneck_1_1/Conv_1/mul",
            "type": "elementwise",
            "name": "stem/MobilenetV3/Bottleneck_1/Bottleneck_1_1/Conv_1/mul",
            "beta": 0
        },
        {
            "bottom": "stem/MobilenetV3/Bottleneck_1/depthwise/InstanceNorm/instancenorm/add_1,stem/MobilenetV3/Bottleneck_1/Bottleneck_1_1/Conv_1/mul",
            "alpha": 1,
            "operation": 1,
            "weights": {},
            "fused_relu": 0,
            "debug_info": "",
            "nd_mode": true,
            "top": "stem/MobilenetV3/Bottleneck_1/mul",
            "type": "elementwise",
            "name": "stem/MobilenetV3/Bottleneck_1/mul",
            "beta": 0
        },
        {
            "bottom": "stem/MobilenetV3/Bottleneck_1/mul",
            "weights": {},
            "mode": 0,
            "debug_info": "",
            "top": "stem/MobilenetV3/Bottleneck_1/Relu",
            "type": "activation",
            "name": "stem/MobilenetV3/Bottleneck_1/Relu",
            "beta": 0
        },
        {
            "pad_r": 0,
            "fused_relu": 0,
            "fused_tanh": 0,
            "debug_info": "",
            "pad_fill_mode": 0,
            "pad_b": 0,
            "pad_l": 0,
            "top": "stem/MobilenetV3/Bottleneck_1/compress/Conv2D",
            "blob_weights": 21,
            "K": 16,
            "name": "stem/MobilenetV3/Bottleneck_1/compress/Conv2D",
            "has_batch_norm": 0,
            "type": "convolution",
            "n_groups": 1,
            "pad_t": 0,
            "has_biases": 0,
            "C": 16,
            "bottom": "stem/MobilenetV3/Bottleneck_1/Relu",
            "weights": {},
            "Nx": 1,
            "pad_mode": 1,
            "pad_value": 0,
            "Ny": 1,
            "n_parallel": 1
        },
        {
            "name": "stem/MobilenetV3/Bottleneck_1/compress/InstanceNorm/instancenorm/add_1",
            "training_momentum": 0.8999999761581421,
            "training_eps": 9.999999974752427e-07,
            "C": 16,
            "training": 1,
            "training_instancenorm": 1,
            "type": "batchnorm",
            "blob_batchnorm_params": 23,
            "bottom": "stem/MobilenetV3/Bottleneck_1/compress/Conv2D",
            "debug_info": "",
            "weights": {},
            "top": "stem/MobilenetV3/Bottleneck_1/compress/InstanceNorm/instancenorm/add_1"
        },
        {
            "pad_r": 0,
            "fused_relu": 0,
            "fused_tanh": 0,
            "debug_info": "",
            "pad_fill_mode": 0,
            "pad_b": 0,
            "pad_l": 0,
            "top": "stem/MobilenetV3/Bottleneck_2/expand/Conv2D",
            "blob_weights": 25,
            "K": 16,
            "name": "stem/MobilenetV3/Bottleneck_2/expand/Conv2D",
            "has_batch_norm": 0,
            "type": "convolution",
            "n_groups": 1,
            "pad_t": 0,
            "has_biases": 0,
            "C": 56,
            "bottom": "stem/MobilenetV3/Bottleneck_1/compress/InstanceNorm/instancenorm/add_1",
            "weights": {},
            "Nx": 1,
            "pad_mode": 1,
            "pad_value": 0,
            "Ny": 1,
            "n_parallel": 1
        },
        {
            "name": "stem/MobilenetV3/Bottleneck_2/expand/InstanceNorm/instancenorm/add_1",
            "training_momentum": 0.8999999761581421,
            "training_eps": 9.999999974752427e-07,
            "C": 56,
            "training": 1,
            "training_instancenorm": 1,
            "type": "batchnorm",
            "blob_batchnorm_params": 27,
            "bottom": "stem/MobilenetV3/Bottleneck_2/expand/Conv2D",
            "debug_info": "",
            "weights": {},
            "top": "stem/MobilenetV3/Bottleneck_2/expand/InstanceNorm/instancenorm/add_1"
        },
        {
            "bottom": "stem/MobilenetV3/Bottleneck_2/expand/InstanceNorm/instancenorm/add_1",
            "weights": {},
            "mode": 0,
            "debug_info": "",
            "top": "stem/MobilenetV3/Bottleneck_2/expand/Relu",
            "type": "activation",
            "name": "stem/MobilenetV3/Bottleneck_2/expand/Relu",
            "beta": 0
        },
        {
            "pad_r": 0,
            "fused_relu": 0,
            "fused_tanh": 0,
            "debug_info": "",
            "pad_fill_mode": 0,
            "pad_b": 0,
            "pad_l": 0,
            "top": "stem/MobilenetV3/Bottleneck_2/depthwise/depthwise",
            "blob_weights": 29,
            "K": 56,
            "stride_x": 2,
            "name": "stem/MobilenetV3/Bottleneck_2/depthwise/depthwise",
            "has_batch_norm": 0,
            "type": "convolution",
            "n_groups": 56,
            "pad_t": 0,
            "stride_y": 2,
            "has_biases": 0,
            "C": 56,
            "bottom": "stem/MobilenetV3/Bottleneck_2/expand/Relu",
            "weights": {},
            "Nx": 3,
            "pad_mode": 1,
            "pad_value": 0,
            "Ny": 3,
            "n_parallel": 1
        },
        {
            "name": "stem/MobilenetV3/Bottleneck_2/depthwise/InstanceNorm/instancenorm/add_1",
            "training_momentum": 0.8999999761581421,
            "training_eps": 9.999999974752427e-07,
            "C": 56,
            "training": 1,
            "training_instancenorm": 1,
            "type": "batchnorm",
            "blob_batchnorm_params": 31,
            "bottom": "stem/MobilenetV3/Bottleneck_2/depthwise/depthwise",
            "debug_info": "",
            "weights": {},
            "top": "stem/MobilenetV3/Bottleneck_2/depthwise/InstanceNorm/instancenorm/add_1"
        },
        {
            "bottom": "stem/MobilenetV3/Bottleneck_2/depthwise/InstanceNorm/instancenorm/add_1",
            "weights": {},
            "mode": 0,
            "debug_info": "",
            "top": "stem/MobilenetV3/Bottleneck_2/Relu",
            "type": "activation",
            "name": "stem/MobilenetV3/Bottleneck_2/Relu",
            "beta": 0
        },
        {
            "pad_r": 0,
            "fused_relu": 0,
            "fused_tanh": 0,
            "debug_info": "",
            "pad_fill_mode": 0,
            "pad_b": 0,
            "pad_l": 0,
            "top": "stem/MobilenetV3/Bottleneck_2/compress/Conv2D",
            "blob_weights": 33,
            "K": 56,
            "name": "stem/MobilenetV3/Bottleneck_2/compress/Conv2D",
            "has_batch_norm": 0,
            "type": "convolution",
            "n_groups": 1,
            "pad_t": 0,
            "has_biases": 0,
            "C": 24,
            "bottom": "stem/MobilenetV3/Bottleneck_2/Relu",
            "weights": {},
            "Nx": 1,
            "pad_mode": 1,
            "pad_value": 0,
            "Ny": 1,
            "n_parallel": 1
        },
        {
            "name": "stem/MobilenetV3/Bottleneck_2/compress/InstanceNorm/instancenorm/add_1",
            "training_momentum": 0.8999999761581421,
            "training_eps": 9.999999974752427e-07,
            "C": 24,
            "training": 1,
            "training_instancenorm": 1,
            "type": "batchnorm",
            "blob_batchnorm_params": 35,
            "bottom": "stem/MobilenetV3/Bottleneck_2/compress/Conv2D",
            "debug_info": "",
            "weights": {},
            "top": "stem/MobilenetV3/Bottleneck_2/compress/InstanceNorm/instancenorm/add_1"
        },
        {
            "pad_r": 0,
            "fused_relu": 0,
            "fused_tanh": 0,
            "debug_info": "",
            "pad_fill_mode": 0,
            "pad_b": 0,
            "pad_l": 0,
            "top": "stem/MobilenetV3/Bottleneck_3/expand/Conv2D",
            "blob_weights": 37,
            "K": 24,
            "name": "stem/MobilenetV3/Bottleneck_3/expand/Conv2D",
            "has_batch_norm": 0,
            "type": "convolution",
            "n_groups": 1,
            "pad_t": 0,
            "has_biases": 0,
            "C": 64,
            "bottom": "stem/MobilenetV3/Bottleneck_2/compress/InstanceNorm/instancenorm/add_1",
            "weights": {},
            "Nx": 1,
            "pad_mode": 1,
            "pad_value": 0,
            "Ny": 1,
            "n_parallel": 1
        },
        {
            "name": "stem/MobilenetV3/Bottleneck_3/expand/InstanceNorm/instancenorm/add_1",
            "training_momentum": 0.8999999761581421,
            "training_eps": 9.999999974752427e-07,
            "C": 64,
            "training": 1,
            "training_instancenorm": 1,
            "type": "batchnorm",
            "blob_batchnorm_params": 39,
            "bottom": "stem/MobilenetV3/Bottleneck_3/expand/Conv2D",
            "debug_info": "",
            "weights": {},
            "top": "stem/MobilenetV3/Bottleneck_3/expand/InstanceNorm/instancenorm/add_1"
        },
        {
            "bottom": "stem/MobilenetV3/Bottleneck_3/expand/InstanceNorm/instancenorm/add_1",
            "weights": {},
            "mode": 0,
            "debug_info": "",
            "top": "stem/MobilenetV3/Bottleneck_3/expand/Relu",
            "type": "activation",
            "name": "stem/MobilenetV3/Bottleneck_3/expand/Relu",
            "beta": 0
        },
        {
            "pad_r": 0,
            "fused_relu": 0,
            "fused_tanh": 0,
            "debug_info": "",
            "pad_fill_mode": 0,
            "pad_b": 0,
            "pad_l": 0,
            "top": "stem/MobilenetV3/Bottleneck_3/depthwise/depthwise",
            "blob_weights": 41,
            "K": 64,
            "name": "stem/MobilenetV3/Bottleneck_3/depthwise/depthwise",
            "has_batch_norm": 0,
            "type": "convolution",
            "n_groups": 64,
            "pad_t": 0,
            "has_biases": 0,
            "C": 64,
            "bottom": "stem/MobilenetV3/Bottleneck_3/expand/Relu",
            "weights": {},
            "Nx": 3,
            "pad_mode": 1,
            "pad_value": 0,
            "Ny": 3,
            "n_parallel": 1
        },
        {
            "name": "stem/MobilenetV3/Bottleneck_3/depthwise/InstanceNorm/instancenorm/add_1",
            "training_momentum": 0.8999999761581421,
            "training_eps": 9.999999974752427e-07,
            "C": 64,
            "training": 1,
            "training_instancenorm": 1,
            "type": "batchnorm",
            "blob_batchnorm_params": 43,
            "bottom": "stem/MobilenetV3/Bottleneck_3/depthwise/depthwise",
            "debug_info": "",
            "weights": {},
            "top": "stem/MobilenetV3/Bottleneck_3/depthwise/InstanceNorm/instancenorm/add_1"
        },
        {
            "bottom": "stem/MobilenetV3/Bottleneck_3/depthwise/InstanceNorm/instancenorm/add_1",
            "weights": {},
            "mode": 0,
            "debug_info": "",
            "top": "stem/MobilenetV3/Bottleneck_3/Relu",
            "type": "activation",
            "name": "stem/MobilenetV3/Bottleneck_3/Relu",
            "beta": 0
        },
        {
            "pad_r": 0,
            "fused_relu": 0,
            "fused_tanh": 0,
            "debug_info": "",
            "pad_fill_mode": 0,
            "pad_b": 0,
            "pad_l": 0,
            "top": "stem/MobilenetV3/Bottleneck_3/compress/Conv2D",
            "blob_weights": 45,
            "K": 64,
            "name": "stem/MobilenetV3/Bottleneck_3/compress/Conv2D",
            "has_batch_norm": 0,
            "type": "convolution",
            "n_groups": 1,
            "pad_t": 0,
            "has_biases": 0,
            "C": 24,
            "bottom": "stem/MobilenetV3/Bottleneck_3/Relu",
            "weights": {},
            "Nx": 1,
            "pad_mode": 1,
            "pad_value": 0,
            "Ny": 1,
            "n_parallel": 1
        },
        {
            "name": "stem/MobilenetV3/Bottleneck_3/compress/InstanceNorm/instancenorm/add_1",
            "training_momentum": 0.8999999761581421,
            "training_eps": 9.999999974752427e-07,
            "C": 24,
            "training": 1,
            "training_instancenorm": 1,
            "type": "batchnorm",
            "blob_batchnorm_params": 47,
            "bottom": "stem/MobilenetV3/Bottleneck_3/compress/Conv2D",
            "debug_info": "",
            "weights": {},
            "top": "stem/MobilenetV3/Bottleneck_3/compress/InstanceNorm/instancenorm/add_1"
        },
        {
            "bottom": "stem/MobilenetV3/Bottleneck_3/compress/InstanceNorm/instancenorm/add_1,stem/MobilenetV3/Bottleneck_2/compress/InstanceNorm/instancenorm/add_1",
            "alpha": 1,
            "operation": 0,
            "weights": {},
            "fused_relu": 0,
            "debug_info": "",
            "top": "stem/MobilenetV3/Bottleneck_3/add",
            "type": "elementwise",
            "name": "stem/MobilenetV3/Bottleneck_3/add",
            "beta": 0
        },
        {
            "pad_r": 0,
            "fused_relu": 0,
            "fused_tanh": 0,
            "debug_info": "",
            "pad_fill_mode": 0,
            "pad_b": 0,
            "pad_l": 0,
            "top": "stem/MobilenetV3/Bottleneck_4/expand/Conv2D",
            "blob_weights": 49,
            "K": 24,
            "name": "stem/MobilenetV3/Bottleneck_4/expand/Conv2D",
            "has_batch_norm": 0,
            "type": "convolution",
            "n_groups": 1,
            "pad_t": 0,
            "has_biases": 0,
            "C": 72,
            "bottom": "stem/MobilenetV3/Bottleneck_3/add",
            "weights": {},
            "Nx": 1,
            "pad_mode": 1,
            "pad_value": 0,
            "Ny": 1,
            "n_parallel": 1
        },
        {
            "name": "stem/MobilenetV3/Bottleneck_4/expand/InstanceNorm/instancenorm/add_1",
            "training_momentum": 0.8999999761581421,
            "training_eps": 9.999999974752427e-07,
            "C": 72,
            "training": 1,
            "training_instancenorm": 1,
            "type": "batchnorm",
            "blob_batchnorm_params": 51,
            "bottom": "stem/MobilenetV3/Bottleneck_4/expand/Conv2D",
            "debug_info": "",
            "weights": {},
            "top": "stem/MobilenetV3/Bottleneck_4/expand/InstanceNorm/instancenorm/add_1"
        },
        {
            "bottom": "stem/MobilenetV3/Bottleneck_4/expand/InstanceNorm/instancenorm/add_1",
            "alpha": 3,
            "operation": 2,
            "weights": {},
            "fused_relu": 0,
            "debug_info": "",
            "top": "stem/MobilenetV3/Bottleneck_4/expand/add",
            "type": "elementwise",
            "name": "stem/MobilenetV3/Bottleneck_4/expand/add",
            "beta": 0
        },
        {
            "bottom": "stem/MobilenetV3/Bottleneck_4/expand/add",
            "alpha": 0,
            "operation": 119,
            "weights": {},
            "fused_relu": 0,
            "debug_info": "",
            "top": "stem/MobilenetV3/Bottleneck_4/expand/Relu6",
            "type": "elementwise",
            "name": "stem/MobilenetV3/Bottleneck_4/expand/Relu6",
            "beta": 6
        },
        {
            "bottom": "stem/MobilenetV3/Bottleneck_4/expand/Relu6",
            "alpha": 0.1666666716337204,
            "operation": 3,
            "weights": {},
            "fused_relu": 0,
            "debug_info": "",
            "top": "stem/MobilenetV3/Bottleneck_4/expand/mul",
            "type": "elementwise",
            "name": "stem/MobilenetV3/Bottleneck_4/expand/mul",
            "beta": 0
        },
        {
            "bottom": "stem/MobilenetV3/Bottleneck_4/expand/InstanceNorm/instancenorm/add_1,stem/MobilenetV3/Bottleneck_4/expand/mul",
            "alpha": 1,
            "operation": 1,
            "weights": {},
            "fused_relu": 0,
            "debug_info": "",
            "top": "stem/MobilenetV3/Bottleneck_4/expand/mul_1",
            "type": "elementwise",
            "name": "stem/MobilenetV3/Bottleneck_4/expand/mul_1",
            "beta": 0
        },
        {
            "pad_r": 0,
            "fused_relu": 0,
            "fused_tanh": 0,
            "debug_info": "",
            "pad_fill_mode": 0,
            "pad_b": 0,
            "pad_l": 0,
            "top": "stem/MobilenetV3/Bottleneck_4/depthwise/depthwise",
            "blob_weights": 53,
            "K": 72,
            "stride_x": 2,
            "name": "stem/MobilenetV3/Bottleneck_4/depthwise/depthwise",
            "has_batch_norm": 0,
            "type": "convolution",
            "n_groups": 72,
            "pad_t": 0,
            "stride_y": 2,
            "has_biases": 0,
            "C": 72,
            "bottom": "stem/MobilenetV3/Bottleneck_4/expand/mul_1",
            "weights": {},
            "Nx": 5,
            "pad_mode": 1,
            "pad_value": 0,
            "Ny": 5,
            "n_parallel": 1
        },
        {
            "name": "stem/MobilenetV3/Bottleneck_4/depthwise/InstanceNorm/instancenorm/add_1",
            "training_momentum": 0.8999999761581421,
            "training_eps": 9.999999974752427e-07,
            "C": 72,
            "training": 1,
            "training_instancenorm": 1,
            "type": "batchnorm",
            "blob_batchnorm_params": 55,
            "bottom": "stem/MobilenetV3/Bottleneck_4/depthwise/depthwise",
            "debug_info": "",
            "weights": {},
            "top": "stem/MobilenetV3/Bottleneck_4/depthwise/InstanceNorm/instancenorm/add_1"
        },
        {
            "pad_r": 0,
            "debug_info": "",
            "pad_fill_mode": 0,
            "pad_b": 0,
            "pad_l": 0,
            "size_x": 23,
            "is_global": 1,
            "top": "stem/MobilenetV3/Bottleneck_4/gap/Mean",
            "top_shape_style": 0,
            "stride_x": 1,
            "avg_or_max": 0,
            "average_count_exclude_padding": 1,
            "type": "pool",
            "name": "stem/MobilenetV3/Bottleneck_4/gap/Mean",
            "pad_t": 0,
            "stride_y": 1,
            "bottom": "stem/MobilenetV3/Bottleneck_4/depthwise/InstanceNorm/instancenorm/add_1",
            "weights": {},
            "pad_mode": 0,
            "size_y": 23,
            "pad_value": 0
        },
        {
            "pad_r": 0,
            "fused_relu": 1,
            "fused_tanh": 0,
            "debug_info": "",
            "pad_fill_mode": 0,
            "pad_b": 0,
            "pad_l": 0,
            "top": "stem/MobilenetV3/Bottleneck_4/Bottleneck_4/Conv/Conv2D",
            "blob_weights": 59,
            "K": 72,
            "blob_biases": 57,
            "name": "stem/MobilenetV3/Bottleneck_4/Bottleneck_4/Conv/Conv2D",
            "has_batch_norm": 0,
            "type": "convolution",
            "n_groups": 1,
            "pad_t": 0,
            "has_biases": 1,
            "C": 18,
            "bottom": "stem/MobilenetV3/Bottleneck_4/gap/Mean",
            "weights": {},
            "Nx": 1,
            "pad_mode": 2,
            "pad_value": 0,
            "Ny": 1,
            "n_parallel": 1
        },
        {
            "pad_r": 0,
            "fused_relu": 0,
            "fused_tanh": 0,
            "debug_info": "",
            "pad_fill_mode": 0,
            "pad_b": 0,
            "pad_l": 0,
            "top": "stem/MobilenetV3/Bottleneck_4/Bottleneck_4_1/Conv_1/Conv2D",
            "blob_weights": 63,
            "K": 18,
            "blob_biases": 61,
            "name": "stem/MobilenetV3/Bottleneck_4/Bottleneck_4_1/Conv_1/Conv2D",
            "has_batch_norm": 0,
            "type": "convolution",
            "n_groups": 1,
            "pad_t": 0,
            "has_biases": 1,
            "C": 72,
            "bottom": "stem/MobilenetV3/Bottleneck_4/Bottleneck_4/Conv/Conv2D",
            "weights": {},
            "Nx": 1,
            "pad_mode": 2,
            "pad_value": 0,
            "Ny": 1,
            "n_parallel": 1
        },
        {
            "bottom": "stem/MobilenetV3/Bottleneck_4/Bottleneck_4_1/Conv_1/Conv2D",
            "alpha": 3,
            "operation": 2,
            "weights": {},
            "fused_relu": 0,
            "debug_info": "",
            "top": "stem/MobilenetV3/Bottleneck_4/Bottleneck_4_1/Conv_1/add",
            "type": "elementwise",
            "name": "stem/MobilenetV3/Bottleneck_4/Bottleneck_4_1/Conv_1/add",
            "beta": 0
        },
        {
            "bottom": "stem/MobilenetV3/Bottleneck_4/Bottleneck_4_1/Conv_1/add",
            "alpha": 0,
            "operation": 119,
            "weights": {},
            "fused_relu": 0,
            "debug_info": "",
            "top": "stem/MobilenetV3/Bottleneck_4/Bottleneck_4_1/Conv_1/Relu6",
            "type": "elementwise",
            "name": "stem/MobilenetV3/Bottleneck_4/Bottleneck_4_1/Conv_1/Relu6",
            "beta": 6
        },
        {
            "bottom": "stem/MobilenetV3/Bottleneck_4/Bottleneck_4_1/Conv_1/Relu6",
            "alpha": 0.1666666716337204,
            "operation": 3,
            "weights": {},
            "fused_relu": 0,
            "debug_info": "",
            "top": "stem/MobilenetV3/Bottleneck_4/Bottleneck_4_1/Conv_1/mul",
            "type": "elementwise",
            "name": "stem/MobilenetV3/Bottleneck_4/Bottleneck_4_1/Conv_1/mul",
            "beta": 0
        },
        {
            "bottom": "stem/MobilenetV3/Bottleneck_4/depthwise/InstanceNorm/instancenorm/add_1,stem/MobilenetV3/Bottleneck_4/Bottleneck_4_1/Conv_1/mul",
            "alpha": 1,
            "operation": 1,
            "weights": {},
            "fused_relu": 0,
            "debug_info": "",
            "nd_mode": true,
            "top": "stem/MobilenetV3/Bottleneck_4/mul",
            "type": "elementwise",
            "name": "stem/MobilenetV3/Bottleneck_4/mul",
            "beta": 0
        },
        {
            "bottom": "stem/MobilenetV3/Bottleneck_4/mul",
            "alpha": 3,
            "operation": 2,
            "weights": {},
            "fused_relu": 0,
            "debug_info": "",
            "top": "stem/MobilenetV3/Bottleneck_4/add",
            "type": "elementwise",
            "name": "stem/MobilenetV3/Bottleneck_4/add",
            "beta": 0
        },
        {
            "bottom": "stem/MobilenetV3/Bottleneck_4/add",
            "alpha": 0,
            "operation": 119,
            "weights": {},
            "fused_relu": 0,
            "debug_info": "",
            "top": "stem/MobilenetV3/Bottleneck_4/Relu6",
            "type": "elementwise",
            "name": "stem/MobilenetV3/Bottleneck_4/Relu6",
            "beta": 6
        },
        {
            "bottom": "stem/MobilenetV3/Bottleneck_4/Relu6",
            "alpha": 0.1666666716337204,
            "operation": 3,
            "weights": {},
            "fused_relu": 0,
            "debug_info": "",
            "top": "stem/MobilenetV3/Bottleneck_4/mul_1",
            "type": "elementwise",
            "name": "stem/MobilenetV3/Bottleneck_4/mul_1",
            "beta": 0
        },
        {
            "bottom": "stem/MobilenetV3/Bottleneck_4/mul,stem/MobilenetV3/Bottleneck_4/mul_1",
            "alpha": 1,
            "operation": 1,
            "weights": {},
            "fused_relu": 0,
            "debug_info": "",
            "top": "stem/MobilenetV3/Bottleneck_4/mul_2",
            "type": "elementwise",
            "name": "stem/MobilenetV3/Bottleneck_4/mul_2",
            "beta": 0
        },
        {
            "pad_r": 0,
            "fused_relu": 0,
            "fused_tanh": 0,
            "debug_info": "",
            "pad_fill_mode": 0,
            "pad_b": 0,
            "pad_l": 0,
            "top": "stem/MobilenetV3/Bottleneck_4/compress/Conv2D",
            "blob_weights": 65,
            "K": 72,
            "name": "stem/MobilenetV3/Bottleneck_4/compress/Conv2D",
            "has_batch_norm": 0,
            "type": "convolution",
            "n_groups": 1,
            "pad_t": 0,
            "has_biases": 0,
            "C": 32,
            "bottom": "stem/MobilenetV3/Bottleneck_4/mul_2",
            "weights": {},
            "Nx": 1,
            "pad_mode": 1,
            "pad_value": 0,
            "Ny": 1,
            "n_parallel": 1
        },
        {
            "name": "stem/MobilenetV3/Bottleneck_4/compress/InstanceNorm/instancenorm/add_1",
            "training_momentum": 0.8999999761581421,
            "training_eps": 9.999999974752427e-07,
            "C": 32,
            "training": 1,
            "training_instancenorm": 1,
            "type": "batchnorm",
            "blob_batchnorm_params": 67,
            "bottom": "stem/MobilenetV3/Bottleneck_4/compress/Conv2D",
            "debug_info": "",
            "weights": {},
            "top": "stem/MobilenetV3/Bottleneck_4/compress/InstanceNorm/instancenorm/add_1"
        },
        {
            "pad_r": 0,
            "fused_relu": 0,
            "fused_tanh": 0,
            "debug_info": "",
            "pad_fill_mode": 0,
            "pad_b": 0,
            "pad_l": 0,
            "top": "stem/MobilenetV3/Bottleneck_5/expand/Conv2D",
            "blob_weights": 69,
            "K": 32,
            "name": "stem/MobilenetV3/Bottleneck_5/expand/Conv2D",
            "has_batch_norm": 0,
            "type": "convolution",
            "n_groups": 1,
            "pad_t": 0,
            "has_biases": 0,
            "C": 184,
            "bottom": "stem/MobilenetV3/Bottleneck_4/compress/InstanceNorm/instancenorm/add_1",
            "weights": {},
            "Nx": 1,
            "pad_mode": 1,
            "pad_value": 0,
            "Ny": 1,
            "n_parallel": 1
        },
        {
            "name": "stem/MobilenetV3/Bottleneck_5/expand/InstanceNorm/instancenorm/add_1",
            "training_momentum": 0.8999999761581421,
            "training_eps": 9.999999974752427e-07,
            "C": 184,
            "training": 1,
            "training_instancenorm": 1,
            "type": "batchnorm",
            "blob_batchnorm_params": 71,
            "bottom": "stem/MobilenetV3/Bottleneck_5/expand/Conv2D",
            "debug_info": "",
            "weights": {},
            "top": "stem/MobilenetV3/Bottleneck_5/expand/InstanceNorm/instancenorm/add_1"
        },
        {
            "bottom": "stem/MobilenetV3/Bottleneck_5/expand/InstanceNorm/instancenorm/add_1",
            "alpha": 3,
            "operation": 2,
            "weights": {},
            "fused_relu": 0,
            "debug_info": "",
            "top": "stem/MobilenetV3/Bottleneck_5/expand/add",
            "type": "elementwise",
            "name": "stem/MobilenetV3/Bottleneck_5/expand/add",
            "beta": 0
        },
        {
            "bottom": "stem/MobilenetV3/Bottleneck_5/expand/add",
            "alpha": 0,
            "operation": 119,
            "weights": {},
            "fused_relu": 0,
            "debug_info": "",
            "top": "stem/MobilenetV3/Bottleneck_5/expand/Relu6",
            "type": "elementwise",
            "name": "stem/MobilenetV3/Bottleneck_5/expand/Relu6",
            "beta": 6
        },
        {
            "bottom": "stem/MobilenetV3/Bottleneck_5/expand/Relu6",
            "alpha": 0.1666666716337204,
            "operation": 3,
            "weights": {},
            "fused_relu": 0,
            "debug_info": "",
            "top": "stem/MobilenetV3/Bottleneck_5/expand/mul",
            "type": "elementwise",
            "name": "stem/MobilenetV3/Bottleneck_5/expand/mul",
            "beta": 0
        },
        {
            "bottom": "stem/MobilenetV3/Bottleneck_5/expand/InstanceNorm/instancenorm/add_1,stem/MobilenetV3/Bottleneck_5/expand/mul",
            "alpha": 1,
            "operation": 1,
            "weights": {},
            "fused_relu": 0,
            "debug_info": "",
            "top": "stem/MobilenetV3/Bottleneck_5/expand/mul_1",
            "type": "elementwise",
            "name": "stem/MobilenetV3/Bottleneck_5/expand/mul_1",
            "beta": 0
        },
        {
            "pad_r": 0,
            "fused_relu": 0,
            "fused_tanh": 0,
            "debug_info": "",
            "pad_fill_mode": 0,
            "pad_b": 0,
            "pad_l": 0,
            "top": "stem/MobilenetV3/Bottleneck_5/depthwise/depthwise",
            "blob_weights": 73,
            "K": 184,
            "name": "stem/MobilenetV3/Bottleneck_5/depthwise/depthwise",
            "has_batch_norm": 0,
            "type": "convolution",
            "n_groups": 184,
            "pad_t": 0,
            "has_biases": 0,
            "C": 184,
            "bottom": "stem/MobilenetV3/Bottleneck_5/expand/mul_1",
            "weights": {},
            "Nx": 5,
            "pad_mode": 1,
            "pad_value": 0,
            "Ny": 5,
            "n_parallel": 1
        },
        {
            "name": "stem/MobilenetV3/Bottleneck_5/depthwise/InstanceNorm/instancenorm/add_1",
            "training_momentum": 0.8999999761581421,
            "training_eps": 9.999999974752427e-07,
            "C": 184,
            "training": 1,
            "training_instancenorm": 1,
            "type": "batchnorm",
            "blob_batchnorm_params": 75,
            "bottom": "stem/MobilenetV3/Bottleneck_5/depthwise/depthwise",
            "debug_info": "",
            "weights": {},
            "top": "stem/MobilenetV3/Bottleneck_5/depthwise/InstanceNorm/instancenorm/add_1"
        },
        {
            "pad_r": 0,
            "debug_info": "",
            "pad_fill_mode": 0,
            "pad_b": 0,
            "pad_l": 0,
            "size_x": 23,
            "is_global": 1,
            "top": "stem/MobilenetV3/Bottleneck_5/gap/Mean",
            "top_shape_style": 0,
            "stride_x": 1,
            "avg_or_max": 0,
            "average_count_exclude_padding": 1,
            "type": "pool",
            "name": "stem/MobilenetV3/Bottleneck_5/gap/Mean",
            "pad_t": 0,
            "stride_y": 1,
            "bottom": "stem/MobilenetV3/Bottleneck_5/depthwise/InstanceNorm/instancenorm/add_1",
            "weights": {},
            "pad_mode": 0,
            "size_y": 23,
            "pad_value": 0
        },
        {
            "pad_r": 0,
            "fused_relu": 1,
            "fused_tanh": 0,
            "debug_info": "",
            "pad_fill_mode": 0,
            "pad_b": 0,
            "pad_l": 0,
            "top": "stem/MobilenetV3/Bottleneck_5/Bottleneck_5/Conv/Conv2D",
            "blob_weights": 79,
            "K": 184,
            "blob_biases": 77,
            "name": "stem/MobilenetV3/Bottleneck_5/Bottleneck_5/Conv/Conv2D",
            "has_batch_norm": 0,
            "type": "convolution",
            "n_groups": 1,
            "pad_t": 0,
            "has_biases": 1,
            "C": 46,
            "bottom": "stem/MobilenetV3/Bottleneck_5/gap/Mean",
            "weights": {},
            "Nx": 1,
            "pad_mode": 2,
            "pad_value": 0,
            "Ny": 1,
            "n_parallel": 1
        },
        {
            "pad_r": 0,
            "fused_relu": 0,
            "fused_tanh": 0,
            "debug_info": "",
            "pad_fill_mode": 0,
            "pad_b": 0,
            "pad_l": 0,
            "top": "stem/MobilenetV3/Bottleneck_5/Bottleneck_5_1/Conv_1/Conv2D",
            "blob_weights": 83,
            "K": 46,
            "blob_biases": 81,
            "name": "stem/MobilenetV3/Bottleneck_5/Bottleneck_5_1/Conv_1/Conv2D",
            "has_batch_norm": 0,
            "type": "convolution",
            "n_groups": 1,
            "pad_t": 0,
            "has_biases": 1,
            "C": 184,
            "bottom": "stem/MobilenetV3/Bottleneck_5/Bottleneck_5/Conv/Conv2D",
            "weights": {},
            "Nx": 1,
            "pad_mode": 2,
            "pad_value": 0,
            "Ny": 1,
            "n_parallel": 1
        },
        {
            "bottom": "stem/MobilenetV3/Bottleneck_5/Bottleneck_5_1/Conv_1/Conv2D",
            "alpha": 3,
            "operation": 2,
            "weights": {},
            "fused_relu": 0,
            "debug_info": "",
            "top": "stem/MobilenetV3/Bottleneck_5/Bottleneck_5_1/Conv_1/add",
            "type": "elementwise",
            "name": "stem/MobilenetV3/Bottleneck_5/Bottleneck_5_1/Conv_1/add",
            "beta": 0
        },
        {
            "bottom": "stem/MobilenetV3/Bottleneck_5/Bottleneck_5_1/Conv_1/add",
            "alpha": 0,
            "operation": 119,
            "weights": {},
            "fused_relu": 0,
            "debug_info": "",
            "top": "stem/MobilenetV3/Bottleneck_5/Bottleneck_5_1/Conv_1/Relu6",
            "type": "elementwise",
            "name": "stem/MobilenetV3/Bottleneck_5/Bottleneck_5_1/Conv_1/Relu6",
            "beta": 6
        },
        {
            "bottom": "stem/MobilenetV3/Bottleneck_5/Bottleneck_5_1/Conv_1/Relu6",
            "alpha": 0.1666666716337204,
            "operation": 3,
            "weights": {},
            "fused_relu": 0,
            "debug_info": "",
            "top": "stem/MobilenetV3/Bottleneck_5/Bottleneck_5_1/Conv_1/mul",
            "type": "elementwise",
            "name": "stem/MobilenetV3/Bottleneck_5/Bottleneck_5_1/Conv_1/mul",
            "beta": 0
        },
        {
            "bottom": "stem/MobilenetV3/Bottleneck_5/depthwise/InstanceNorm/instancenorm/add_1,stem/MobilenetV3/Bottleneck_5/Bottleneck_5_1/Conv_1/mul",
            "alpha": 1,
            "operation": 1,
            "weights": {},
            "fused_relu": 0,
            "debug_info": "",
            "nd_mode": true,
            "top": "stem/MobilenetV3/Bottleneck_5/mul",
            "type": "elementwise",
            "name": "stem/MobilenetV3/Bottleneck_5/mul",
            "beta": 0
        },
        {
            "bottom": "stem/MobilenetV3/Bottleneck_5/mul",
            "alpha": 3,
            "operation": 2,
            "weights": {},
            "fused_relu": 0,
            "debug_info": "",
            "top": "stem/MobilenetV3/Bottleneck_5/add",
            "type": "elementwise",
            "name": "stem/MobilenetV3/Bottleneck_5/add",
            "beta": 0
        },
        {
            "bottom": "stem/MobilenetV3/Bottleneck_5/add",
            "alpha": 0,
            "operation": 119,
            "weights": {},
            "fused_relu": 0,
            "debug_info": "",
            "top": "stem/MobilenetV3/Bottleneck_5/Relu6",
            "type": "elementwise",
            "name": "stem/MobilenetV3/Bottleneck_5/Relu6",
            "beta": 6
        },
        {
            "bottom": "stem/MobilenetV3/Bottleneck_5/Relu6",
            "alpha": 0.1666666716337204,
            "operation": 3,
            "weights": {},
            "fused_relu": 0,
            "debug_info": "",
            "top": "stem/MobilenetV3/Bottleneck_5/mul_1",
            "type": "elementwise",
            "name": "stem/MobilenetV3/Bottleneck_5/mul_1",
            "beta": 0
        },
        {
            "bottom": "stem/MobilenetV3/Bottleneck_5/mul,stem/MobilenetV3/Bottleneck_5/mul_1",
            "alpha": 1,
            "operation": 1,
            "weights": {},
            "fused_relu": 0,
            "debug_info": "",
            "top": "stem/MobilenetV3/Bottleneck_5/mul_2",
            "type": "elementwise",
            "name": "stem/MobilenetV3/Bottleneck_5/mul_2",
            "beta": 0
        },
        {
            "pad_r": 0,
            "fused_relu": 0,
            "fused_tanh": 0,
            "debug_info": "",
            "pad_fill_mode": 0,
            "pad_b": 0,
            "pad_l": 0,
            "top": "stem/MobilenetV3/Bottleneck_5/compress/Conv2D",
            "blob_weights": 85,
            "K": 184,
            "name": "stem/MobilenetV3/Bottleneck_5/compress/Conv2D",
            "has_batch_norm": 0,
            "type": "convolution",
            "n_groups": 1,
            "pad_t": 0,
            "has_biases": 0,
            "C": 32,
            "bottom": "stem/MobilenetV3/Bottleneck_5/mul_2",
            "weights": {},
            "Nx": 1,
            "pad_mode": 1,
            "pad_value": 0,
            "Ny": 1,
            "n_parallel": 1
        },
        {
            "name": "stem/MobilenetV3/Bottleneck_5/compress/InstanceNorm/instancenorm/add_1",
            "training_momentum": 0.8999999761581421,
            "training_eps": 9.999999974752427e-07,
            "C": 32,
            "training": 1,
            "training_instancenorm": 1,
            "type": "batchnorm",
            "blob_batchnorm_params": 87,
            "bottom": "stem/MobilenetV3/Bottleneck_5/compress/Conv2D",
            "debug_info": "",
            "weights": {},
            "top": "stem/MobilenetV3/Bottleneck_5/compress/InstanceNorm/instancenorm/add_1"
        },
        {
            "bottom": "stem/MobilenetV3/Bottleneck_5/compress/InstanceNorm/instancenorm/add_1,stem/MobilenetV3/Bottleneck_4/compress/InstanceNorm/instancenorm/add_1",
            "alpha": 1,
            "operation": 0,
            "weights": {},
            "fused_relu": 0,
            "debug_info": "",
            "top": "stem/MobilenetV3/Bottleneck_5/add_1",
            "type": "elementwise",
            "name": "stem/MobilenetV3/Bottleneck_5/add_1",
            "beta": 0
        },
        {
            "pad_r": 0,
            "fused_relu": 0,
            "fused_tanh": 0,
            "debug_info": "",
            "pad_fill_mode": 0,
            "pad_b": 0,
            "pad_l": 0,
            "top": "stem/MobilenetV3/Bottleneck_6/expand/Conv2D",
            "blob_weights": 89,
            "K": 32,
            "name": "stem/MobilenetV3/Bottleneck_6/expand/Conv2D",
            "has_batch_norm": 0,
            "type": "convolution",
            "n_groups": 1,
            "pad_t": 0,
            "has_biases": 0,
            "C": 184,
            "bottom": "stem/MobilenetV3/Bottleneck_5/add_1",
            "weights": {},
            "Nx": 1,
            "pad_mode": 1,
            "pad_value": 0,
            "Ny": 1,
            "n_parallel": 1
        },
        {
            "name": "stem/MobilenetV3/Bottleneck_6/expand/InstanceNorm/instancenorm/add_1",
            "training_momentum": 0.8999999761581421,
            "training_eps": 9.999999974752427e-07,
            "C": 184,
            "training": 1,
            "training_instancenorm": 1,
            "type": "batchnorm",
            "blob_batchnorm_params": 91,
            "bottom": "stem/MobilenetV3/Bottleneck_6/expand/Conv2D",
            "debug_info": "",
            "weights": {},
            "top": "stem/MobilenetV3/Bottleneck_6/expand/InstanceNorm/instancenorm/add_1"
        },
        {
            "bottom": "stem/MobilenetV3/Bottleneck_6/expand/InstanceNorm/instancenorm/add_1",
            "alpha": 3,
            "operation": 2,
            "weights": {},
            "fused_relu": 0,
            "debug_info": "",
            "top": "stem/MobilenetV3/Bottleneck_6/expand/add",
            "type": "elementwise",
            "name": "stem/MobilenetV3/Bottleneck_6/expand/add",
            "beta": 0
        },
        {
            "bottom": "stem/MobilenetV3/Bottleneck_6/expand/add",
            "alpha": 0,
            "operation": 119,
            "weights": {},
            "fused_relu": 0,
            "debug_info": "",
            "top": "stem/MobilenetV3/Bottleneck_6/expand/Relu6",
            "type": "elementwise",
            "name": "stem/MobilenetV3/Bottleneck_6/expand/Relu6",
            "beta": 6
        },
        {
            "bottom": "stem/MobilenetV3/Bottleneck_6/expand/Relu6",
            "alpha": 0.1666666716337204,
            "operation": 3,
            "weights": {},
            "fused_relu": 0,
            "debug_info": "",
            "top": "stem/MobilenetV3/Bottleneck_6/expand/mul",
            "type": "elementwise",
            "name": "stem/MobilenetV3/Bottleneck_6/expand/mul",
            "beta": 0
        },
        {
            "bottom": "stem/MobilenetV3/Bottleneck_6/expand/InstanceNorm/instancenorm/add_1,stem/MobilenetV3/Bottleneck_6/expand/mul",
            "alpha": 1,
            "operation": 1,
            "weights": {},
            "fused_relu": 0,
            "debug_info": "",
            "top": "stem/MobilenetV3/Bottleneck_6/expand/mul_1",
            "type": "elementwise",
            "name": "stem/MobilenetV3/Bottleneck_6/expand/mul_1",
            "beta": 0
        },
        {
            "pad_r": 0,
            "fused_relu": 0,
            "fused_tanh": 0,
            "debug_info": "",
            "pad_fill_mode": 0,
            "pad_b": 0,
            "pad_l": 0,
            "top": "stem/MobilenetV3/Bottleneck_6/depthwise/depthwise",
            "blob_weights": 93,
            "K": 184,
            "name": "stem/MobilenetV3/Bottleneck_6/depthwise/depthwise",
            "has_batch_norm": 0,
            "type": "convolution",
            "n_groups": 184,
            "pad_t": 0,
            "has_biases": 0,
            "C": 184,
            "bottom": "stem/MobilenetV3/Bottleneck_6/expand/mul_1",
            "weights": {},
            "Nx": 5,
            "pad_mode": 1,
            "pad_value": 0,
            "Ny": 5,
            "n_parallel": 1
        },
        {
            "name": "stem/MobilenetV3/Bottleneck_6/depthwise/InstanceNorm/instancenorm/add_1",
            "training_momentum": 0.8999999761581421,
            "training_eps": 9.999999974752427e-07,
            "C": 184,
            "training": 1,
            "training_instancenorm": 1,
            "type": "batchnorm",
            "blob_batchnorm_params": 95,
            "bottom": "stem/MobilenetV3/Bottleneck_6/depthwise/depthwise",
            "debug_info": "",
            "weights": {},
            "top": "stem/MobilenetV3/Bottleneck_6/depthwise/InstanceNorm/instancenorm/add_1"
        },
        {
            "pad_r": 0,
            "debug_info": "",
            "pad_fill_mode": 0,
            "pad_b": 0,
            "pad_l": 0,
            "size_x": 23,
            "is_global": 1,
            "top": "stem/MobilenetV3/Bottleneck_6/gap/Mean",
            "top_shape_style": 0,
            "stride_x": 1,
            "avg_or_max": 0,
            "average_count_exclude_padding": 1,
            "type": "pool",
            "name": "stem/MobilenetV3/Bottleneck_6/gap/Mean",
            "pad_t": 0,
            "stride_y": 1,
            "bottom": "stem/MobilenetV3/Bottleneck_6/depthwise/InstanceNorm/instancenorm/add_1",
            "weights": {},
            "pad_mode": 0,
            "size_y": 23,
            "pad_value": 0
        },
        {
            "pad_r": 0,
            "fused_relu": 1,
            "fused_tanh": 0,
            "debug_info": "",
            "pad_fill_mode": 0,
            "pad_b": 0,
            "pad_l": 0,
            "top": "stem/MobilenetV3/Bottleneck_6/Bottleneck_6/Conv/Conv2D",
            "blob_weights": 99,
            "K": 184,
            "blob_biases": 97,
            "name": "stem/MobilenetV3/Bottleneck_6/Bottleneck_6/Conv/Conv2D",
            "has_batch_norm": 0,
            "type": "convolution",
            "n_groups": 1,
            "pad_t": 0,
            "has_biases": 1,
            "C": 46,
            "bottom": "stem/MobilenetV3/Bottleneck_6/gap/Mean",
            "weights": {},
            "Nx": 1,
            "pad_mode": 2,
            "pad_value": 0,
            "Ny": 1,
            "n_parallel": 1
        },
        {
            "pad_r": 0,
            "fused_relu": 0,
            "fused_tanh": 0,
            "debug_info": "",
            "pad_fill_mode": 0,
            "pad_b": 0,
            "pad_l": 0,
            "top": "stem/MobilenetV3/Bottleneck_6/Bottleneck_6_1/Conv_1/Conv2D",
            "blob_weights": 103,
            "K": 46,
            "blob_biases": 101,
            "name": "stem/MobilenetV3/Bottleneck_6/Bottleneck_6_1/Conv_1/Conv2D",
            "has_batch_norm": 0,
            "type": "convolution",
            "n_groups": 1,
            "pad_t": 0,
            "has_biases": 1,
            "C": 184,
            "bottom": "stem/MobilenetV3/Bottleneck_6/Bottleneck_6/Conv/Conv2D",
            "weights": {},
            "Nx": 1,
            "pad_mode": 2,
            "pad_value": 0,
            "Ny": 1,
            "n_parallel": 1
        },
        {
            "bottom": "stem/MobilenetV3/Bottleneck_6/Bottleneck_6_1/Conv_1/Conv2D",
            "alpha": 3,
            "operation": 2,
            "weights": {},
            "fused_relu": 0,
            "debug_info": "",
            "top": "stem/MobilenetV3/Bottleneck_6/Bottleneck_6_1/Conv_1/add",
            "type": "elementwise",
            "name": "stem/MobilenetV3/Bottleneck_6/Bottleneck_6_1/Conv_1/add",
            "beta": 0
        },
        {
            "bottom": "stem/MobilenetV3/Bottleneck_6/Bottleneck_6_1/Conv_1/add",
            "alpha": 0,
            "operation": 119,
            "weights": {},
            "fused_relu": 0,
            "debug_info": "",
            "top": "stem/MobilenetV3/Bottleneck_6/Bottleneck_6_1/Conv_1/Relu6",
            "type": "elementwise",
            "name": "stem/MobilenetV3/Bottleneck_6/Bottleneck_6_1/Conv_1/Relu6",
            "beta": 6
        },
        {
            "bottom": "stem/MobilenetV3/Bottleneck_6/Bottleneck_6_1/Conv_1/Relu6",
            "alpha": 0.1666666716337204,
            "operation": 3,
            "weights": {},
            "fused_relu": 0,
            "debug_info": "",
            "top": "stem/MobilenetV3/Bottleneck_6/Bottleneck_6_1/Conv_1/mul",
            "type": "elementwise",
            "name": "stem/MobilenetV3/Bottleneck_6/Bottleneck_6_1/Conv_1/mul",
            "beta": 0
        },
        {
            "bottom": "stem/MobilenetV3/Bottleneck_6/depthwise/InstanceNorm/instancenorm/add_1,stem/MobilenetV3/Bottleneck_6/Bottleneck_6_1/Conv_1/mul",
            "alpha": 1,
            "operation": 1,
            "weights": {},
            "fused_relu": 0,
            "debug_info": "",
            "nd_mode": true,
            "top": "stem/MobilenetV3/Bottleneck_6/mul",
            "type": "elementwise",
            "name": "stem/MobilenetV3/Bottleneck_6/mul",
            "beta": 0
        },
        {
            "bottom": "stem/MobilenetV3/Bottleneck_6/mul",
            "alpha": 3,
            "operation": 2,
            "weights": {},
            "fused_relu": 0,
            "debug_info": "",
            "top": "stem/MobilenetV3/Bottleneck_6/add",
            "type": "elementwise",
            "name": "stem/MobilenetV3/Bottleneck_6/add",
            "beta": 0
        },
        {
            "bottom": "stem/MobilenetV3/Bottleneck_6/add",
            "alpha": 0,
            "operation": 119,
            "weights": {},
            "fused_relu": 0,
            "debug_info": "",
            "top": "stem/MobilenetV3/Bottleneck_6/Relu6",
            "type": "elementwise",
            "name": "stem/MobilenetV3/Bottleneck_6/Relu6",
            "beta": 6
        },
        {
            "bottom": "stem/MobilenetV3/Bottleneck_6/Relu6",
            "alpha": 0.1666666716337204,
            "operation": 3,
            "weights": {},
            "fused_relu": 0,
            "debug_info": "",
            "top": "stem/MobilenetV3/Bottleneck_6/mul_1",
            "type": "elementwise",
            "name": "stem/MobilenetV3/Bottleneck_6/mul_1",
            "beta": 0
        },
        {
            "bottom": "stem/MobilenetV3/Bottleneck_6/mul,stem/MobilenetV3/Bottleneck_6/mul_1",
            "alpha": 1,
            "operation": 1,
            "weights": {},
            "fused_relu": 0,
            "debug_info": "",
            "top": "stem/MobilenetV3/Bottleneck_6/mul_2",
            "type": "elementwise",
            "name": "stem/MobilenetV3/Bottleneck_6/mul_2",
            "beta": 0
        },
        {
            "pad_r": 0,
            "fused_relu": 0,
            "fused_tanh": 0,
            "debug_info": "",
            "pad_fill_mode": 0,
            "pad_b": 0,
            "pad_l": 0,
            "top": "stem/MobilenetV3/Bottleneck_6/compress/Conv2D",
            "blob_weights": 105,
            "K": 184,
            "name": "stem/MobilenetV3/Bottleneck_6/compress/Conv2D",
            "has_batch_norm": 0,
            "type": "convolution",
            "n_groups": 1,
            "pad_t": 0,
            "has_biases": 0,
            "C": 32,
            "bottom": "stem/MobilenetV3/Bottleneck_6/mul_2",
            "weights": {},
            "Nx": 1,
            "pad_mode": 1,
            "pad_value": 0,
            "Ny": 1,
            "n_parallel": 1
        },
        {
            "name": "stem/MobilenetV3/Bottleneck_6/compress/InstanceNorm/instancenorm/add_1",
            "training_momentum": 0.8999999761581421,
            "training_eps": 9.999999974752427e-07,
            "C": 32,
            "training": 1,
            "training_instancenorm": 1,
            "type": "batchnorm",
            "blob_batchnorm_params": 107,
            "bottom": "stem/MobilenetV3/Bottleneck_6/compress/Conv2D",
            "debug_info": "",
            "weights": {},
            "top": "stem/MobilenetV3/Bottleneck_6/compress/InstanceNorm/instancenorm/add_1"
        },
        {
            "bottom": "stem/MobilenetV3/Bottleneck_6/compress/InstanceNorm/instancenorm/add_1,stem/MobilenetV3/Bottleneck_5/add_1",
            "alpha": 1,
            "operation": 0,
            "weights": {},
            "fused_relu": 0,
            "debug_info": "",
            "top": "stem/MobilenetV3/Bottleneck_6/add_1",
            "type": "elementwise",
            "name": "stem/MobilenetV3/Bottleneck_6/add_1",
            "beta": 0
        },
        {
            "pad_r": 0,
            "fused_relu": 0,
            "fused_tanh": 0,
            "debug_info": "",
            "pad_fill_mode": 0,
            "pad_b": 0,
            "pad_l": 0,
            "top": "stem/MobilenetV3/Bottleneck_7/expand/Conv2D",
            "blob_weights": 109,
            "K": 32,
            "name": "stem/MobilenetV3/Bottleneck_7/expand/Conv2D",
            "has_batch_norm": 0,
            "type": "convolution",
            "n_groups": 1,
            "pad_t": 0,
            "has_biases": 0,
            "C": 88,
            "bottom": "stem/MobilenetV3/Bottleneck_6/add_1",
            "weights": {},
            "Nx": 1,
            "pad_mode": 1,
            "pad_value": 0,
            "Ny": 1,
            "n_parallel": 1
        },
        {
            "name": "stem/MobilenetV3/Bottleneck_7/expand/InstanceNorm/instancenorm/add_1",
            "training_momentum": 0.8999999761581421,
            "training_eps": 9.999999974752427e-07,
            "C": 88,
            "training": 1,
            "training_instancenorm": 1,
            "type": "batchnorm",
            "blob_batchnorm_params": 111,
            "bottom": "stem/MobilenetV3/Bottleneck_7/expand/Conv2D",
            "debug_info": "",
            "weights": {},
            "top": "stem/MobilenetV3/Bottleneck_7/expand/InstanceNorm/instancenorm/add_1"
        },
        {
            "bottom": "stem/MobilenetV3/Bottleneck_7/expand/InstanceNorm/instancenorm/add_1",
            "alpha": 3,
            "operation": 2,
            "weights": {},
            "fused_relu": 0,
            "debug_info": "",
            "top": "stem/MobilenetV3/Bottleneck_7/expand/add",
            "type": "elementwise",
            "name": "stem/MobilenetV3/Bottleneck_7/expand/add",
            "beta": 0
        },
        {
            "bottom": "stem/MobilenetV3/Bottleneck_7/expand/add",
            "alpha": 0,
            "operation": 119,
            "weights": {},
            "fused_relu": 0,
            "debug_info": "",
            "top": "stem/MobilenetV3/Bottleneck_7/expand/Relu6",
            "type": "elementwise",
            "name": "stem/MobilenetV3/Bottleneck_7/expand/Relu6",
            "beta": 6
        },
        {
            "bottom": "stem/MobilenetV3/Bottleneck_7/expand/Relu6",
            "alpha": 0.1666666716337204,
            "operation": 3,
            "weights": {},
            "fused_relu": 0,
            "debug_info": "",
            "top": "stem/MobilenetV3/Bottleneck_7/expand/mul",
            "type": "elementwise",
            "name": "stem/MobilenetV3/Bottleneck_7/expand/mul",
            "beta": 0
        },
        {
            "bottom": "stem/MobilenetV3/Bottleneck_7/expand/InstanceNorm/instancenorm/add_1,stem/MobilenetV3/Bottleneck_7/expand/mul",
            "alpha": 1,
            "operation": 1,
            "weights": {},
            "fused_relu": 0,
            "debug_info": "",
            "top": "stem/MobilenetV3/Bottleneck_7/expand/mul_1",
            "type": "elementwise",
            "name": "stem/MobilenetV3/Bottleneck_7/expand/mul_1",
            "beta": 0
        },
        {
            "pad_r": 0,
            "fused_relu": 0,
            "fused_tanh": 0,
            "debug_info": "",
            "pad_fill_mode": 0,
            "pad_b": 0,
            "pad_l": 0,
            "top": "stem/MobilenetV3/Bottleneck_7/depthwise/depthwise",
            "blob_weights": 113,
            "K": 88,
            "name": "stem/MobilenetV3/Bottleneck_7/depthwise/depthwise",
            "has_batch_norm": 0,
            "type": "convolution",
            "n_groups": 88,
            "pad_t": 0,
            "has_biases": 0,
            "C": 88,
            "bottom": "stem/MobilenetV3/Bottleneck_7/expand/mul_1",
            "weights": {},
            "Nx": 5,
            "pad_mode": 1,
            "pad_value": 0,
            "Ny": 5,
            "n_parallel": 1
        },
        {
            "name": "stem/MobilenetV3/Bottleneck_7/depthwise/InstanceNorm/instancenorm/add_1",
            "training_momentum": 0.8999999761581421,
            "training_eps": 9.999999974752427e-07,
            "C": 88,
            "training": 1,
            "training_instancenorm": 1,
            "type": "batchnorm",
            "blob_batchnorm_params": 115,
            "bottom": "stem/MobilenetV3/Bottleneck_7/depthwise/depthwise",
            "debug_info": "",
            "weights": {},
            "top": "stem/MobilenetV3/Bottleneck_7/depthwise/InstanceNorm/instancenorm/add_1"
        },
        {
            "pad_r": 0,
            "debug_info": "",
            "pad_fill_mode": 0,
            "pad_b": 0,
            "pad_l": 0,
            "size_x": 23,
            "is_global": 1,
            "top": "stem/MobilenetV3/Bottleneck_7/gap/Mean",
            "top_shape_style": 0,
            "stride_x": 1,
            "avg_or_max": 0,
            "average_count_exclude_padding": 1,
            "type": "pool",
            "name": "stem/MobilenetV3/Bottleneck_7/gap/Mean",
            "pad_t": 0,
            "stride_y": 1,
            "bottom": "stem/MobilenetV3/Bottleneck_7/depthwise/InstanceNorm/instancenorm/add_1",
            "weights": {},
            "pad_mode": 0,
            "size_y": 23,
            "pad_value": 0
        },
        {
            "pad_r": 0,
            "fused_relu": 1,
            "fused_tanh": 0,
            "debug_info": "",
            "pad_fill_mode": 0,
            "pad_b": 0,
            "pad_l": 0,
            "top": "stem/MobilenetV3/Bottleneck_7/Bottleneck_7/Conv/Conv2D",
            "blob_weights": 119,
            "K": 88,
            "blob_biases": 117,
            "name": "stem/MobilenetV3/Bottleneck_7/Bottleneck_7/Conv/Conv2D",
            "has_batch_norm": 0,
            "type": "convolution",
            "n_groups": 1,
            "pad_t": 0,
            "has_biases": 1,
            "C": 22,
            "bottom": "stem/MobilenetV3/Bottleneck_7/gap/Mean",
            "weights": {},
            "Nx": 1,
            "pad_mode": 2,
            "pad_value": 0,
            "Ny": 1,
            "n_parallel": 1
        },
        {
            "pad_r": 0,
            "fused_relu": 0,
            "fused_tanh": 0,
            "debug_info": "",
            "pad_fill_mode": 0,
            "pad_b": 0,
            "pad_l": 0,
            "top": "stem/MobilenetV3/Bottleneck_7/Bottleneck_7_1/Conv_1/Conv2D",
            "blob_weights": 123,
            "K": 22,
            "blob_biases": 121,
            "name": "stem/MobilenetV3/Bottleneck_7/Bottleneck_7_1/Conv_1/Conv2D",
            "has_batch_norm": 0,
            "type": "convolution",
            "n_groups": 1,
            "pad_t": 0,
            "has_biases": 1,
            "C": 88,
            "bottom": "stem/MobilenetV3/Bottleneck_7/Bottleneck_7/Conv/Conv2D",
            "weights": {},
            "Nx": 1,
            "pad_mode": 2,
            "pad_value": 0,
            "Ny": 1,
            "n_parallel": 1
        },
        {
            "bottom": "stem/MobilenetV3/Bottleneck_7/Bottleneck_7_1/Conv_1/Conv2D",
            "alpha": 3,
            "operation": 2,
            "weights": {},
            "fused_relu": 0,
            "debug_info": "",
            "top": "stem/MobilenetV3/Bottleneck_7/Bottleneck_7_1/Conv_1/add",
            "type": "elementwise",
            "name": "stem/MobilenetV3/Bottleneck_7/Bottleneck_7_1/Conv_1/add",
            "beta": 0
        },
        {
            "bottom": "stem/MobilenetV3/Bottleneck_7/Bottleneck_7_1/Conv_1/add",
            "alpha": 0,
            "operation": 119,
            "weights": {},
            "fused_relu": 0,
            "debug_info": "",
            "top": "stem/MobilenetV3/Bottleneck_7/Bottleneck_7_1/Conv_1/Relu6",
            "type": "elementwise",
            "name": "stem/MobilenetV3/Bottleneck_7/Bottleneck_7_1/Conv_1/Relu6",
            "beta": 6
        },
        {
            "bottom": "stem/MobilenetV3/Bottleneck_7/Bottleneck_7_1/Conv_1/Relu6",
            "alpha": 0.1666666716337204,
            "operation": 3,
            "weights": {},
            "fused_relu": 0,
            "debug_info": "",
            "top": "stem/MobilenetV3/Bottleneck_7/Bottleneck_7_1/Conv_1/mul",
            "type": "elementwise",
            "name": "stem/MobilenetV3/Bottleneck_7/Bottleneck_7_1/Conv_1/mul",
            "beta": 0
        },
        {
            "bottom": "stem/MobilenetV3/Bottleneck_7/depthwise/InstanceNorm/instancenorm/add_1,stem/MobilenetV3/Bottleneck_7/Bottleneck_7_1/Conv_1/mul",
            "alpha": 1,
            "operation": 1,
            "weights": {},
            "fused_relu": 0,
            "debug_info": "",
            "nd_mode": true,
            "top": "stem/MobilenetV3/Bottleneck_7/mul",
            "type": "elementwise",
            "name": "stem/MobilenetV3/Bottleneck_7/mul",
            "beta": 0
        },
        {
            "bottom": "stem/MobilenetV3/Bottleneck_7/mul",
            "alpha": 3,
            "operation": 2,
            "weights": {},
            "fused_relu": 0,
            "debug_info": "",
            "top": "stem/MobilenetV3/Bottleneck_7/add",
            "type": "elementwise",
            "name": "stem/MobilenetV3/Bottleneck_7/add",
            "beta": 0
        },
        {
            "bottom": "stem/MobilenetV3/Bottleneck_7/add",
            "alpha": 0,
            "operation": 119,
            "weights": {},
            "fused_relu": 0,
            "debug_info": "",
            "top": "stem/MobilenetV3/Bottleneck_7/Relu6",
            "type": "elementwise",
            "name": "stem/MobilenetV3/Bottleneck_7/Relu6",
            "beta": 6
        },
        {
            "bottom": "stem/MobilenetV3/Bottleneck_7/Relu6",
            "alpha": 0.1666666716337204,
            "operation": 3,
            "weights": {},
            "fused_relu": 0,
            "debug_info": "",
            "top": "stem/MobilenetV3/Bottleneck_7/mul_1",
            "type": "elementwise",
            "name": "stem/MobilenetV3/Bottleneck_7/mul_1",
            "beta": 0
        },
        {
            "bottom": "stem/MobilenetV3/Bottleneck_7/mul,stem/MobilenetV3/Bottleneck_7/mul_1",
            "alpha": 1,
            "operation": 1,
            "weights": {},
            "fused_relu": 0,
            "debug_info": "",
            "top": "stem/MobilenetV3/Bottleneck_7/mul_2",
            "type": "elementwise",
            "name": "stem/MobilenetV3/Bottleneck_7/mul_2",
            "beta": 0
        },
        {
            "pad_r": 0,
            "fused_relu": 0,
            "fused_tanh": 0,
            "debug_info": "",
            "pad_fill_mode": 0,
            "pad_b": 0,
            "pad_l": 0,
            "top": "stem/MobilenetV3/Bottleneck_7/compress/Conv2D",
            "blob_weights": 125,
            "K": 88,
            "name": "stem/MobilenetV3/Bottleneck_7/compress/Conv2D",
            "has_batch_norm": 0,
            "type": "convolution",
            "n_groups": 1,
            "pad_t": 0,
            "has_biases": 0,
            "C": 40,
            "bottom": "stem/MobilenetV3/Bottleneck_7/mul_2",
            "weights": {},
            "Nx": 1,
            "pad_mode": 1,
            "pad_value": 0,
            "Ny": 1,
            "n_parallel": 1
        },
        {
            "name": "stem/MobilenetV3/Bottleneck_7/compress/InstanceNorm/instancenorm/add_1",
            "training_momentum": 0.8999999761581421,
            "training_eps": 9.999999974752427e-07,
            "C": 40,
            "training": 1,
            "training_instancenorm": 1,
            "type": "batchnorm",
            "blob_batchnorm_params": 127,
            "bottom": "stem/MobilenetV3/Bottleneck_7/compress/Conv2D",
            "debug_info": "",
            "weights": {},
            "top": "stem/MobilenetV3/Bottleneck_7/compress/InstanceNorm/instancenorm/add_1"
        },
        {
            "pad_r": 0,
            "fused_relu": 0,
            "fused_tanh": 0,
            "debug_info": "",
            "pad_fill_mode": 0,
            "pad_b": 0,
            "pad_l": 0,
            "top": "stem/MobilenetV3/Bottleneck_8/expand/Conv2D",
            "blob_weights": 129,
            "K": 40,
            "name": "stem/MobilenetV3/Bottleneck_8/expand/Conv2D",
            "has_batch_norm": 0,
            "type": "convolution",
            "n_groups": 1,
            "pad_t": 0,
            "has_biases": 0,
            "C": 112,
            "bottom": "stem/MobilenetV3/Bottleneck_7/compress/InstanceNorm/instancenorm/add_1",
            "weights": {},
            "Nx": 1,
            "pad_mode": 1,
            "pad_value": 0,
            "Ny": 1,
            "n_parallel": 1
        },
        {
            "name": "stem/MobilenetV3/Bottleneck_8/expand/InstanceNorm/instancenorm/add_1",
            "training_momentum": 0.8999999761581421,
            "training_eps": 9.999999974752427e-07,
            "C": 112,
            "training": 1,
            "training_instancenorm": 1,
            "type": "batchnorm",
            "blob_batchnorm_params": 131,
            "bottom": "stem/MobilenetV3/Bottleneck_8/expand/Conv2D",
            "debug_info": "",
            "weights": {},
            "top": "stem/MobilenetV3/Bottleneck_8/expand/InstanceNorm/instancenorm/add_1"
        },
        {
            "bottom": "stem/MobilenetV3/Bottleneck_8/expand/InstanceNorm/instancenorm/add_1",
            "alpha": 3,
            "operation": 2,
            "weights": {},
            "fused_relu": 0,
            "debug_info": "",
            "top": "stem/MobilenetV3/Bottleneck_8/expand/add",
            "type": "elementwise",
            "name": "stem/MobilenetV3/Bottleneck_8/expand/add",
            "beta": 0
        },
        {
            "bottom": "stem/MobilenetV3/Bottleneck_8/expand/add",
            "alpha": 0,
            "operation": 119,
            "weights": {},
            "fused_relu": 0,
            "debug_info": "",
            "top": "stem/MobilenetV3/Bottleneck_8/expand/Relu6",
            "type": "elementwise",
            "name": "stem/MobilenetV3/Bottleneck_8/expand/Relu6",
            "beta": 6
        },
        {
            "bottom": "stem/MobilenetV3/Bottleneck_8/expand/Relu6",
            "alpha": 0.1666666716337204,
            "operation": 3,
            "weights": {},
            "fused_relu": 0,
            "debug_info": "",
            "top": "stem/MobilenetV3/Bottleneck_8/expand/mul",
            "type": "elementwise",
            "name": "stem/MobilenetV3/Bottleneck_8/expand/mul",
            "beta": 0
        },
        {
            "bottom": "stem/MobilenetV3/Bottleneck_8/expand/InstanceNorm/instancenorm/add_1,stem/MobilenetV3/Bottleneck_8/expand/mul",
            "alpha": 1,
            "operation": 1,
            "weights": {},
            "fused_relu": 0,
            "debug_info": "",
            "top": "stem/MobilenetV3/Bottleneck_8/expand/mul_1",
            "type": "elementwise",
            "name": "stem/MobilenetV3/Bottleneck_8/expand/mul_1",
            "beta": 0
        },
        {
            "pad_r": 0,
            "fused_relu": 0,
            "fused_tanh": 0,
            "debug_info": "",
            "pad_fill_mode": 0,
            "pad_b": 0,
            "pad_l": 0,
            "top": "stem/MobilenetV3/Bottleneck_8/depthwise/depthwise",
            "blob_weights": 133,
            "K": 112,
            "name": "stem/MobilenetV3/Bottleneck_8/depthwise/depthwise",
            "has_batch_norm": 0,
            "type": "convolution",
            "n_groups": 112,
            "pad_t": 0,
            "has_biases": 0,
            "C": 112,
            "bottom": "stem/MobilenetV3/Bottleneck_8/expand/mul_1",
            "weights": {},
            "Nx": 5,
            "pad_mode": 1,
            "pad_value": 0,
            "Ny": 5,
            "n_parallel": 1
        },
        {
            "name": "stem/MobilenetV3/Bottleneck_8/depthwise/InstanceNorm/instancenorm/add_1",
            "training_momentum": 0.8999999761581421,
            "training_eps": 9.999999974752427e-07,
            "C": 112,
            "training": 1,
            "training_instancenorm": 1,
            "type": "batchnorm",
            "blob_batchnorm_params": 135,
            "bottom": "stem/MobilenetV3/Bottleneck_8/depthwise/depthwise",
            "debug_info": "",
            "weights": {},
            "top": "stem/MobilenetV3/Bottleneck_8/depthwise/InstanceNorm/instancenorm/add_1"
        },
        {
            "pad_r": 0,
            "debug_info": "",
            "pad_fill_mode": 0,
            "pad_b": 0,
            "pad_l": 0,
            "size_x": 23,
            "is_global": 1,
            "top": "stem/MobilenetV3/Bottleneck_8/gap/Mean",
            "top_shape_style": 0,
            "stride_x": 1,
            "avg_or_max": 0,
            "average_count_exclude_padding": 1,
            "type": "pool",
            "name": "stem/MobilenetV3/Bottleneck_8/gap/Mean",
            "pad_t": 0,
            "stride_y": 1,
            "bottom": "stem/MobilenetV3/Bottleneck_8/depthwise/InstanceNorm/instancenorm/add_1",
            "weights": {},
            "pad_mode": 0,
            "size_y": 23,
            "pad_value": 0
        },
        {
            "pad_r": 0,
            "fused_relu": 1,
            "fused_tanh": 0,
            "debug_info": "",
            "pad_fill_mode": 0,
            "pad_b": 0,
            "pad_l": 0,
            "top": "stem/MobilenetV3/Bottleneck_8/Bottleneck_8/Conv/Conv2D",
            "blob_weights": 139,
            "K": 112,
            "blob_biases": 137,
            "name": "stem/MobilenetV3/Bottleneck_8/Bottleneck_8/Conv/Conv2D",
            "has_batch_norm": 0,
            "type": "convolution",
            "n_groups": 1,
            "pad_t": 0,
            "has_biases": 1,
            "C": 28,
            "bottom": "stem/MobilenetV3/Bottleneck_8/gap/Mean",
            "weights": {},
            "Nx": 1,
            "pad_mode": 2,
            "pad_value": 0,
            "Ny": 1,
            "n_parallel": 1
        },
        {
            "pad_r": 0,
            "fused_relu": 0,
            "fused_tanh": 0,
            "debug_info": "",
            "pad_fill_mode": 0,
            "pad_b": 0,
            "pad_l": 0,
            "top": "stem/MobilenetV3/Bottleneck_8/Bottleneck_8_1/Conv_1/Conv2D",
            "blob_weights": 143,
            "K": 28,
            "blob_biases": 141,
            "name": "stem/MobilenetV3/Bottleneck_8/Bottleneck_8_1/Conv_1/Conv2D",
            "has_batch_norm": 0,
            "type": "convolution",
            "n_groups": 1,
            "pad_t": 0,
            "has_biases": 1,
            "C": 112,
            "bottom": "stem/MobilenetV3/Bottleneck_8/Bottleneck_8/Conv/Conv2D",
            "weights": {},
            "Nx": 1,
            "pad_mode": 2,
            "pad_value": 0,
            "Ny": 1,
            "n_parallel": 1
        },
        {
            "bottom": "stem/MobilenetV3/Bottleneck_8/Bottleneck_8_1/Conv_1/Conv2D",
            "alpha": 3,
            "operation": 2,
            "weights": {},
            "fused_relu": 0,
            "debug_info": "",
            "top": "stem/MobilenetV3/Bottleneck_8/Bottleneck_8_1/Conv_1/add",
            "type": "elementwise",
            "name": "stem/MobilenetV3/Bottleneck_8/Bottleneck_8_1/Conv_1/add",
            "beta": 0
        },
        {
            "bottom": "stem/MobilenetV3/Bottleneck_8/Bottleneck_8_1/Conv_1/add",
            "alpha": 0,
            "operation": 119,
            "weights": {},
            "fused_relu": 0,
            "debug_info": "",
            "top": "stem/MobilenetV3/Bottleneck_8/Bottleneck_8_1/Conv_1/Relu6",
            "type": "elementwise",
            "name": "stem/MobilenetV3/Bottleneck_8/Bottleneck_8_1/Conv_1/Relu6",
            "beta": 6
        },
        {
            "bottom": "stem/MobilenetV3/Bottleneck_8/Bottleneck_8_1/Conv_1/Relu6",
            "alpha": 0.1666666716337204,
            "operation": 3,
            "weights": {},
            "fused_relu": 0,
            "debug_info": "",
            "top": "stem/MobilenetV3/Bottleneck_8/Bottleneck_8_1/Conv_1/mul",
            "type": "elementwise",
            "name": "stem/MobilenetV3/Bottleneck_8/Bottleneck_8_1/Conv_1/mul",
            "beta": 0
        },
        {
            "bottom": "stem/MobilenetV3/Bottleneck_8/depthwise/InstanceNorm/instancenorm/add_1,stem/MobilenetV3/Bottleneck_8/Bottleneck_8_1/Conv_1/mul",
            "alpha": 1,
            "operation": 1,
            "weights": {},
            "fused_relu": 0,
            "debug_info": "",
            "nd_mode": true,
            "top": "stem/MobilenetV3/Bottleneck_8/mul",
            "type": "elementwise",
            "name": "stem/MobilenetV3/Bottleneck_8/mul",
            "beta": 0
        },
        {
            "bottom": "stem/MobilenetV3/Bottleneck_8/mul",
            "alpha": 3,
            "operation": 2,
            "weights": {},
            "fused_relu": 0,
            "debug_info": "",
            "top": "stem/MobilenetV3/Bottleneck_8/add",
            "type": "elementwise",
            "name": "stem/MobilenetV3/Bottleneck_8/add",
            "beta": 0
        },
        {
            "bottom": "stem/MobilenetV3/Bottleneck_8/add",
            "alpha": 0,
            "operation": 119,
            "weights": {},
            "fused_relu": 0,
            "debug_info": "",
            "top": "stem/MobilenetV3/Bottleneck_8/Relu6",
            "type": "elementwise",
            "name": "stem/MobilenetV3/Bottleneck_8/Relu6",
            "beta": 6
        },
        {
            "bottom": "stem/MobilenetV3/Bottleneck_8/Relu6",
            "alpha": 0.1666666716337204,
            "operation": 3,
            "weights": {},
            "fused_relu": 0,
            "debug_info": "",
            "top": "stem/MobilenetV3/Bottleneck_8/mul_1",
            "type": "elementwise",
            "name": "stem/MobilenetV3/Bottleneck_8/mul_1",
            "beta": 0
        },
        {
            "bottom": "stem/MobilenetV3/Bottleneck_8/mul,stem/MobilenetV3/Bottleneck_8/mul_1",
            "alpha": 1,
            "operation": 1,
            "weights": {},
            "fused_relu": 0,
            "debug_info": "",
            "top": "stem/MobilenetV3/Bottleneck_8/mul_2",
            "type": "elementwise",
            "name": "stem/MobilenetV3/Bottleneck_8/mul_2",
            "beta": 0
        },
        {
            "pad_r": 0,
            "fused_relu": 0,
            "fused_tanh": 0,
            "debug_info": "",
            "pad_fill_mode": 0,
            "pad_b": 0,
            "pad_l": 0,
            "top": "stem/MobilenetV3/Bottleneck_8/compress/Conv2D",
            "blob_weights": 145,
            "K": 112,
            "name": "stem/MobilenetV3/Bottleneck_8/compress/Conv2D",
            "has_batch_norm": 0,
            "type": "convolution",
            "n_groups": 1,
            "pad_t": 0,
            "has_biases": 0,
            "C": 40,
            "bottom": "stem/MobilenetV3/Bottleneck_8/mul_2",
            "weights": {},
            "Nx": 1,
            "pad_mode": 1,
            "pad_value": 0,
            "Ny": 1,
            "n_parallel": 1
        },
        {
            "name": "stem/MobilenetV3/Bottleneck_8/compress/InstanceNorm/instancenorm/add_1",
            "training_momentum": 0.8999999761581421,
            "training_eps": 9.999999974752427e-07,
            "C": 40,
            "training": 1,
            "training_instancenorm": 1,
            "type": "batchnorm",
            "blob_batchnorm_params": 147,
            "bottom": "stem/MobilenetV3/Bottleneck_8/compress/Conv2D",
            "debug_info": "",
            "weights": {},
            "top": "stem/MobilenetV3/Bottleneck_8/compress/InstanceNorm/instancenorm/add_1"
        },
        {
            "bottom": "stem/MobilenetV3/Bottleneck_8/compress/InstanceNorm/instancenorm/add_1,stem/MobilenetV3/Bottleneck_7/compress/InstanceNorm/instancenorm/add_1",
            "alpha": 1,
            "operation": 0,
            "weights": {},
            "fused_relu": 0,
            "debug_info": "",
            "top": "stem/MobilenetV3/Bottleneck_8/add_1",
            "type": "elementwise",
            "name": "stem/MobilenetV3/Bottleneck_8/add_1",
            "beta": 0
        },
        {
            "pad_r": 0,
            "fused_relu": 0,
            "fused_tanh": 0,
            "debug_info": "",
            "pad_fill_mode": 0,
            "pad_b": 0,
            "pad_l": 0,
            "top": "stem/MobilenetV3/Bottleneck_9/expand/Conv2D",
            "blob_weights": 149,
            "K": 40,
            "name": "stem/MobilenetV3/Bottleneck_9/expand/Conv2D",
            "has_batch_norm": 0,
            "type": "convolution",
            "n_groups": 1,
            "pad_t": 0,
            "has_biases": 0,
            "C": 216,
            "bottom": "stem/MobilenetV3/Bottleneck_8/add_1",
            "weights": {},
            "Nx": 1,
            "pad_mode": 1,
            "pad_value": 0,
            "Ny": 1,
            "n_parallel": 1
        },
        {
            "name": "stem/MobilenetV3/Bottleneck_9/expand/InstanceNorm/instancenorm/add_1",
            "training_momentum": 0.8999999761581421,
            "training_eps": 9.999999974752427e-07,
            "C": 216,
            "training": 1,
            "training_instancenorm": 1,
            "type": "batchnorm",
            "blob_batchnorm_params": 151,
            "bottom": "stem/MobilenetV3/Bottleneck_9/expand/Conv2D",
            "debug_info": "",
            "weights": {},
            "top": "stem/MobilenetV3/Bottleneck_9/expand/InstanceNorm/instancenorm/add_1"
        },
        {
            "bottom": "stem/MobilenetV3/Bottleneck_9/expand/InstanceNorm/instancenorm/add_1",
            "alpha": 3,
            "operation": 2,
            "weights": {},
            "fused_relu": 0,
            "debug_info": "",
            "top": "stem/MobilenetV3/Bottleneck_9/expand/add",
            "type": "elementwise",
            "name": "stem/MobilenetV3/Bottleneck_9/expand/add",
            "beta": 0
        },
        {
            "bottom": "stem/MobilenetV3/Bottleneck_9/expand/add",
            "alpha": 0,
            "operation": 119,
            "weights": {},
            "fused_relu": 0,
            "debug_info": "",
            "top": "stem/MobilenetV3/Bottleneck_9/expand/Relu6",
            "type": "elementwise",
            "name": "stem/MobilenetV3/Bottleneck_9/expand/Relu6",
            "beta": 6
        },
        {
            "bottom": "stem/MobilenetV3/Bottleneck_9/expand/Relu6",
            "alpha": 0.1666666716337204,
            "operation": 3,
            "weights": {},
            "fused_relu": 0,
            "debug_info": "",
            "top": "stem/MobilenetV3/Bottleneck_9/expand/mul",
            "type": "elementwise",
            "name": "stem/MobilenetV3/Bottleneck_9/expand/mul",
            "beta": 0
        },
        {
            "bottom": "stem/MobilenetV3/Bottleneck_9/expand/InstanceNorm/instancenorm/add_1,stem/MobilenetV3/Bottleneck_9/expand/mul",
            "alpha": 1,
            "operation": 1,
            "weights": {},
            "fused_relu": 0,
            "debug_info": "",
            "top": "stem/MobilenetV3/Bottleneck_9/expand/mul_1",
            "type": "elementwise",
            "name": "stem/MobilenetV3/Bottleneck_9/expand/mul_1",
            "beta": 0
        },
        {
            "pad_r": 0,
            "fused_relu": 0,
            "fused_tanh": 0,
            "debug_info": "",
            "pad_fill_mode": 0,
            "pad_b": 0,
            "pad_l": 0,
            "top": "stem/MobilenetV3/Bottleneck_9/depthwise/depthwise",
            "blob_weights": 153,
            "K": 216,
            "stride_x": 2,
            "name": "stem/MobilenetV3/Bottleneck_9/depthwise/depthwise",
            "has_batch_norm": 0,
            "type": "convolution",
            "n_groups": 216,
            "pad_t": 0,
            "stride_y": 2,
            "has_biases": 0,
            "C": 216,
            "bottom": "stem/MobilenetV3/Bottleneck_9/expand/mul_1",
            "weights": {},
            "Nx": 5,
            "pad_mode": 1,
            "pad_value": 0,
            "Ny": 5,
            "n_parallel": 1
        },
        {
            "name": "stem/MobilenetV3/Bottleneck_9/depthwise/InstanceNorm/instancenorm/add_1",
            "training_momentum": 0.8999999761581421,
            "training_eps": 9.999999974752427e-07,
            "C": 216,
            "training": 1,
            "training_instancenorm": 1,
            "type": "batchnorm",
            "blob_batchnorm_params": 155,
            "bottom": "stem/MobilenetV3/Bottleneck_9/depthwise/depthwise",
            "debug_info": "",
            "weights": {},
            "top": "stem/MobilenetV3/Bottleneck_9/depthwise/InstanceNorm/instancenorm/add_1"
        },
        {
            "pad_r": 0,
            "debug_info": "",
            "pad_fill_mode": 0,
            "pad_b": 0,
            "pad_l": 0,
            "size_x": 12,
            "is_global": 1,
            "top": "stem/MobilenetV3/Bottleneck_9/gap/Mean",
            "top_shape_style": 0,
            "stride_x": 1,
            "avg_or_max": 0,
            "average_count_exclude_padding": 1,
            "type": "pool",
            "name": "stem/MobilenetV3/Bottleneck_9/gap/Mean",
            "pad_t": 0,
            "stride_y": 1,
            "bottom": "stem/MobilenetV3/Bottleneck_9/depthwise/InstanceNorm/instancenorm/add_1",
            "weights": {},
            "pad_mode": 0,
            "size_y": 12,
            "pad_value": 0
        },
        {
            "pad_r": 0,
            "fused_relu": 1,
            "fused_tanh": 0,
            "debug_info": "",
            "pad_fill_mode": 0,
            "pad_b": 0,
            "pad_l": 0,
            "top": "stem/MobilenetV3/Bottleneck_9/Bottleneck_9/Conv/Conv2D",
            "blob_weights": 159,
            "K": 216,
            "blob_biases": 157,
            "name": "stem/MobilenetV3/Bottleneck_9/Bottleneck_9/Conv/Conv2D",
            "has_batch_norm": 0,
            "type": "convolution",
            "n_groups": 1,
            "pad_t": 0,
            "has_biases": 1,
            "C": 54,
            "bottom": "stem/MobilenetV3/Bottleneck_9/gap/Mean",
            "weights": {},
            "Nx": 1,
            "pad_mode": 2,
            "pad_value": 0,
            "Ny": 1,
            "n_parallel": 1
        },
        {
            "pad_r": 0,
            "fused_relu": 0,
            "fused_tanh": 0,
            "debug_info": "",
            "pad_fill_mode": 0,
            "pad_b": 0,
            "pad_l": 0,
            "top": "stem/MobilenetV3/Bottleneck_9/Bottleneck_9_1/Conv_1/Conv2D",
            "blob_weights": 163,
            "K": 54,
            "blob_biases": 161,
            "name": "stem/MobilenetV3/Bottleneck_9/Bottleneck_9_1/Conv_1/Conv2D",
            "has_batch_norm": 0,
            "type": "convolution",
            "n_groups": 1,
            "pad_t": 0,
            "has_biases": 1,
            "C": 216,
            "bottom": "stem/MobilenetV3/Bottleneck_9/Bottleneck_9/Conv/Conv2D",
            "weights": {},
            "Nx": 1,
            "pad_mode": 2,
            "pad_value": 0,
            "Ny": 1,
            "n_parallel": 1
        },
        {
            "bottom": "stem/MobilenetV3/Bottleneck_9/Bottleneck_9_1/Conv_1/Conv2D",
            "alpha": 3,
            "operation": 2,
            "weights": {},
            "fused_relu": 0,
            "debug_info": "",
            "top": "stem/MobilenetV3/Bottleneck_9/Bottleneck_9_1/Conv_1/add",
            "type": "elementwise",
            "name": "stem/MobilenetV3/Bottleneck_9/Bottleneck_9_1/Conv_1/add",
            "beta": 0
        },
        {
            "bottom": "stem/MobilenetV3/Bottleneck_9/Bottleneck_9_1/Conv_1/add",
            "alpha": 0,
            "operation": 119,
            "weights": {},
            "fused_relu": 0,
            "debug_info": "",
            "top": "stem/MobilenetV3/Bottleneck_9/Bottleneck_9_1/Conv_1/Relu6",
            "type": "elementwise",
            "name": "stem/MobilenetV3/Bottleneck_9/Bottleneck_9_1/Conv_1/Relu6",
            "beta": 6
        },
        {
            "bottom": "stem/MobilenetV3/Bottleneck_9/Bottleneck_9_1/Conv_1/Relu6",
            "alpha": 0.1666666716337204,
            "operation": 3,
            "weights": {},
            "fused_relu": 0,
            "debug_info": "",
            "top": "stem/MobilenetV3/Bottleneck_9/Bottleneck_9_1/Conv_1/mul",
            "type": "elementwise",
            "name": "stem/MobilenetV3/Bottleneck_9/Bottleneck_9_1/Conv_1/mul",
            "beta": 0
        },
        {
            "bottom": "stem/MobilenetV3/Bottleneck_9/depthwise/InstanceNorm/instancenorm/add_1,stem/MobilenetV3/Bottleneck_9/Bottleneck_9_1/Conv_1/mul",
            "alpha": 1,
            "operation": 1,
            "weights": {},
            "fused_relu": 0,
            "debug_info": "",
            "nd_mode": true,
            "top": "stem/MobilenetV3/Bottleneck_9/mul",
            "type": "elementwise",
            "name": "stem/MobilenetV3/Bottleneck_9/mul",
            "beta": 0
        },
        {
            "bottom": "stem/MobilenetV3/Bottleneck_9/mul",
            "alpha": 3,
            "operation": 2,
            "weights": {},
            "fused_relu": 0,
            "debug_info": "",
            "top": "stem/MobilenetV3/Bottleneck_9/add",
            "type": "elementwise",
            "name": "stem/MobilenetV3/Bottleneck_9/add",
            "beta": 0
        },
        {
            "bottom": "stem/MobilenetV3/Bottleneck_9/add",
            "alpha": 0,
            "operation": 119,
            "weights": {},
            "fused_relu": 0,
            "debug_info": "",
            "top": "stem/MobilenetV3/Bottleneck_9/Relu6",
            "type": "elementwise",
            "name": "stem/MobilenetV3/Bottleneck_9/Relu6",
            "beta": 6
        },
        {
            "bottom": "stem/MobilenetV3/Bottleneck_9/Relu6",
            "alpha": 0.1666666716337204,
            "operation": 3,
            "weights": {},
            "fused_relu": 0,
            "debug_info": "",
            "top": "stem/MobilenetV3/Bottleneck_9/mul_1",
            "type": "elementwise",
            "name": "stem/MobilenetV3/Bottleneck_9/mul_1",
            "beta": 0
        },
        {
            "bottom": "stem/MobilenetV3/Bottleneck_9/mul,stem/MobilenetV3/Bottleneck_9/mul_1",
            "alpha": 1,
            "operation": 1,
            "weights": {},
            "fused_relu": 0,
            "debug_info": "",
            "top": "stem/MobilenetV3/Bottleneck_9/mul_2",
            "type": "elementwise",
            "name": "stem/MobilenetV3/Bottleneck_9/mul_2",
            "beta": 0
        },
        {
            "pad_r": 0,
            "fused_relu": 0,
            "fused_tanh": 0,
            "debug_info": "",
            "pad_fill_mode": 0,
            "pad_b": 0,
            "pad_l": 0,
            "top": "stem/MobilenetV3/Bottleneck_9/compress/Conv2D",
            "blob_weights": 165,
            "K": 216,
            "name": "stem/MobilenetV3/Bottleneck_9/compress/Conv2D",
            "has_batch_norm": 0,
            "type": "convolution",
            "n_groups": 1,
            "pad_t": 0,
            "has_biases": 0,
            "C": 72,
            "bottom": "stem/MobilenetV3/Bottleneck_9/mul_2",
            "weights": {},
            "Nx": 1,
            "pad_mode": 1,
            "pad_value": 0,
            "Ny": 1,
            "n_parallel": 1
        },
        {
            "name": "stem/MobilenetV3/Bottleneck_9/compress/InstanceNorm/instancenorm/add_1",
            "training_momentum": 0.8999999761581421,
            "training_eps": 9.999999974752427e-07,
            "C": 72,
            "training": 1,
            "training_instancenorm": 1,
            "type": "batchnorm",
            "blob_batchnorm_params": 167,
            "bottom": "stem/MobilenetV3/Bottleneck_9/compress/Conv2D",
            "debug_info": "",
            "weights": {},
            "top": "stem/MobilenetV3/Bottleneck_9/compress/InstanceNorm/instancenorm/add_1"
        },
        {
            "pad_r": 0,
            "fused_relu": 0,
            "fused_tanh": 0,
            "debug_info": "",
            "pad_fill_mode": 0,
            "pad_b": 0,
            "pad_l": 0,
            "top": "stem/MobilenetV3/Bottleneck_10/expand/Conv2D",
            "blob_weights": 169,
            "K": 72,
            "name": "stem/MobilenetV3/Bottleneck_10/expand/Conv2D",
            "has_batch_norm": 0,
            "type": "convolution",
            "n_groups": 1,
            "pad_t": 0,
            "has_biases": 0,
            "C": 432,
            "bottom": "stem/MobilenetV3/Bottleneck_9/compress/InstanceNorm/instancenorm/add_1",
            "weights": {},
            "Nx": 1,
            "pad_mode": 1,
            "pad_value": 0,
            "Ny": 1,
            "n_parallel": 1
        },
        {
            "name": "stem/MobilenetV3/Bottleneck_10/expand/InstanceNorm/instancenorm/add_1",
            "training_momentum": 0.8999999761581421,
            "training_eps": 9.999999974752427e-07,
            "C": 432,
            "training": 1,
            "training_instancenorm": 1,
            "type": "batchnorm",
            "blob_batchnorm_params": 171,
            "bottom": "stem/MobilenetV3/Bottleneck_10/expand/Conv2D",
            "debug_info": "",
            "weights": {},
            "top": "stem/MobilenetV3/Bottleneck_10/expand/InstanceNorm/instancenorm/add_1"
        },
        {
            "bottom": "stem/MobilenetV3/Bottleneck_10/expand/InstanceNorm/instancenorm/add_1",
            "alpha": 3,
            "operation": 2,
            "weights": {},
            "fused_relu": 0,
            "debug_info": "",
            "top": "stem/MobilenetV3/Bottleneck_10/expand/add",
            "type": "elementwise",
            "name": "stem/MobilenetV3/Bottleneck_10/expand/add",
            "beta": 0
        },
        {
            "bottom": "stem/MobilenetV3/Bottleneck_10/expand/add",
            "alpha": 0,
            "operation": 119,
            "weights": {},
            "fused_relu": 0,
            "debug_info": "",
            "top": "stem/MobilenetV3/Bottleneck_10/expand/Relu6",
            "type": "elementwise",
            "name": "stem/MobilenetV3/Bottleneck_10/expand/Relu6",
            "beta": 6
        },
        {
            "bottom": "stem/MobilenetV3/Bottleneck_10/expand/Relu6",
            "alpha": 0.1666666716337204,
            "operation": 3,
            "weights": {},
            "fused_relu": 0,
            "debug_info": "",
            "top": "stem/MobilenetV3/Bottleneck_10/expand/mul",
            "type": "elementwise",
            "name": "stem/MobilenetV3/Bottleneck_10/expand/mul",
            "beta": 0
        },
        {
            "bottom": "stem/MobilenetV3/Bottleneck_10/expand/InstanceNorm/instancenorm/add_1,stem/MobilenetV3/Bottleneck_10/expand/mul",
            "alpha": 1,
            "operation": 1,
            "weights": {},
            "fused_relu": 0,
            "debug_info": "",
            "top": "stem/MobilenetV3/Bottleneck_10/expand/mul_1",
            "type": "elementwise",
            "name": "stem/MobilenetV3/Bottleneck_10/expand/mul_1",
            "beta": 0
        },
        {
            "pad_r": 0,
            "fused_relu": 0,
            "fused_tanh": 0,
            "debug_info": "",
            "pad_fill_mode": 0,
            "pad_b": 0,
            "pad_l": 0,
            "top": "stem/MobilenetV3/Bottleneck_10/depthwise/depthwise",
            "blob_weights": 173,
            "K": 432,
            "name": "stem/MobilenetV3/Bottleneck_10/depthwise/depthwise",
            "has_batch_norm": 0,
            "type": "convolution",
            "n_groups": 432,
            "pad_t": 0,
            "has_biases": 0,
            "C": 432,
            "bottom": "stem/MobilenetV3/Bottleneck_10/expand/mul_1",
            "weights": {},
            "Nx": 5,
            "pad_mode": 1,
            "pad_value": 0,
            "Ny": 5,
            "n_parallel": 1
        },
        {
            "name": "stem/MobilenetV3/Bottleneck_10/depthwise/InstanceNorm/instancenorm/add_1",
            "training_momentum": 0.8999999761581421,
            "training_eps": 9.999999974752427e-07,
            "C": 432,
            "training": 1,
            "training_instancenorm": 1,
            "type": "batchnorm",
            "blob_batchnorm_params": 175,
            "bottom": "stem/MobilenetV3/Bottleneck_10/depthwise/depthwise",
            "debug_info": "",
            "weights": {},
            "top": "stem/MobilenetV3/Bottleneck_10/depthwise/InstanceNorm/instancenorm/add_1"
        },
        {
            "pad_r": 0,
            "debug_info": "",
            "pad_fill_mode": 0,
            "pad_b": 0,
            "pad_l": 0,
            "size_x": 12,
            "is_global": 1,
            "top": "stem/MobilenetV3/Bottleneck_10/gap/Mean",
            "top_shape_style": 0,
            "stride_x": 1,
            "avg_or_max": 0,
            "average_count_exclude_padding": 1,
            "type": "pool",
            "name": "stem/MobilenetV3/Bottleneck_10/gap/Mean",
            "pad_t": 0,
            "stride_y": 1,
            "bottom": "stem/MobilenetV3/Bottleneck_10/depthwise/InstanceNorm/instancenorm/add_1",
            "weights": {},
            "pad_mode": 0,
            "size_y": 12,
            "pad_value": 0
        },
        {
            "pad_r": 0,
            "fused_relu": 1,
            "fused_tanh": 0,
            "debug_info": "",
            "pad_fill_mode": 0,
            "pad_b": 0,
            "pad_l": 0,
            "top": "stem/MobilenetV3/Bottleneck_10/Bottleneck_10/Conv/Conv2D",
            "blob_weights": 179,
            "K": 432,
            "blob_biases": 177,
            "name": "stem/MobilenetV3/Bottleneck_10/Bottleneck_10/Conv/Conv2D",
            "has_batch_norm": 0,
            "type": "convolution",
            "n_groups": 1,
            "pad_t": 0,
            "has_biases": 1,
            "C": 108,
            "bottom": "stem/MobilenetV3/Bottleneck_10/gap/Mean",
            "weights": {},
            "Nx": 1,
            "pad_mode": 2,
            "pad_value": 0,
            "Ny": 1,
            "n_parallel": 1
        },
        {
            "pad_r": 0,
            "fused_relu": 0,
            "fused_tanh": 0,
            "debug_info": "",
            "pad_fill_mode": 0,
            "pad_b": 0,
            "pad_l": 0,
            "top": "stem/MobilenetV3/Bottleneck_10/Bottleneck_10_1/Conv_1/Conv2D",
            "blob_weights": 183,
            "K": 108,
            "blob_biases": 181,
            "name": "stem/MobilenetV3/Bottleneck_10/Bottleneck_10_1/Conv_1/Conv2D",
            "has_batch_norm": 0,
            "type": "convolution",
            "n_groups": 1,
            "pad_t": 0,
            "has_biases": 1,
            "C": 432,
            "bottom": "stem/MobilenetV3/Bottleneck_10/Bottleneck_10/Conv/Conv2D",
            "weights": {},
            "Nx": 1,
            "pad_mode": 2,
            "pad_value": 0,
            "Ny": 1,
            "n_parallel": 1
        },
        {
            "bottom": "stem/MobilenetV3/Bottleneck_10/Bottleneck_10_1/Conv_1/Conv2D",
            "alpha": 3,
            "operation": 2,
            "weights": {},
            "fused_relu": 0,
            "debug_info": "",
            "top": "stem/MobilenetV3/Bottleneck_10/Bottleneck_10_1/Conv_1/add",
            "type": "elementwise",
            "name": "stem/MobilenetV3/Bottleneck_10/Bottleneck_10_1/Conv_1/add",
            "beta": 0
        },
        {
            "bottom": "stem/MobilenetV3/Bottleneck_10/Bottleneck_10_1/Conv_1/add",
            "alpha": 0,
            "operation": 119,
            "weights": {},
            "fused_relu": 0,
            "debug_info": "",
            "top": "stem/MobilenetV3/Bottleneck_10/Bottleneck_10_1/Conv_1/Relu6",
            "type": "elementwise",
            "name": "stem/MobilenetV3/Bottleneck_10/Bottleneck_10_1/Conv_1/Relu6",
            "beta": 6
        },
        {
            "bottom": "stem/MobilenetV3/Bottleneck_10/Bottleneck_10_1/Conv_1/Relu6",
            "alpha": 0.1666666716337204,
            "operation": 3,
            "weights": {},
            "fused_relu": 0,
            "debug_info": "",
            "top": "stem/MobilenetV3/Bottleneck_10/Bottleneck_10_1/Conv_1/mul",
            "type": "elementwise",
            "name": "stem/MobilenetV3/Bottleneck_10/Bottleneck_10_1/Conv_1/mul",
            "beta": 0
        },
        {
            "bottom": "stem/MobilenetV3/Bottleneck_10/depthwise/InstanceNorm/instancenorm/add_1,stem/MobilenetV3/Bottleneck_10/Bottleneck_10_1/Conv_1/mul",
            "alpha": 1,
            "operation": 1,
            "weights": {},
            "fused_relu": 0,
            "debug_info": "",
            "nd_mode": true,
            "top": "stem/MobilenetV3/Bottleneck_10/mul",
            "type": "elementwise",
            "name": "stem/MobilenetV3/Bottleneck_10/mul",
            "beta": 0
        },
        {
            "bottom": "stem/MobilenetV3/Bottleneck_10/mul",
            "alpha": 3,
            "operation": 2,
            "weights": {},
            "fused_relu": 0,
            "debug_info": "",
            "top": "stem/MobilenetV3/Bottleneck_10/add",
            "type": "elementwise",
            "name": "stem/MobilenetV3/Bottleneck_10/add",
            "beta": 0
        },
        {
            "bottom": "stem/MobilenetV3/Bottleneck_10/add",
            "alpha": 0,
            "operation": 119,
            "weights": {},
            "fused_relu": 0,
            "debug_info": "",
            "top": "stem/MobilenetV3/Bottleneck_10/Relu6",
            "type": "elementwise",
            "name": "stem/MobilenetV3/Bottleneck_10/Relu6",
            "beta": 6
        },
        {
            "bottom": "stem/MobilenetV3/Bottleneck_10/Relu6",
            "alpha": 0.1666666716337204,
            "operation": 3,
            "weights": {},
            "fused_relu": 0,
            "debug_info": "",
            "top": "stem/MobilenetV3/Bottleneck_10/mul_1",
            "type": "elementwise",
            "name": "stem/MobilenetV3/Bottleneck_10/mul_1",
            "beta": 0
        },
        {
            "bottom": "stem/MobilenetV3/Bottleneck_10/mul,stem/MobilenetV3/Bottleneck_10/mul_1",
            "alpha": 1,
            "operation": 1,
            "weights": {},
            "fused_relu": 0,
            "debug_info": "",
            "top": "stem/MobilenetV3/Bottleneck_10/mul_2",
            "type": "elementwise",
            "name": "stem/MobilenetV3/Bottleneck_10/mul_2",
            "beta": 0
        },
        {
            "pad_r": 0,
            "fused_relu": 0,
            "fused_tanh": 0,
            "debug_info": "",
            "pad_fill_mode": 0,
            "pad_b": 0,
            "pad_l": 0,
            "top": "stem/MobilenetV3/Bottleneck_10/compress/Conv2D",
            "blob_weights": 185,
            "K": 432,
            "name": "stem/MobilenetV3/Bottleneck_10/compress/Conv2D",
            "has_batch_norm": 0,
            "type": "convolution",
            "n_groups": 1,
            "pad_t": 0,
            "has_biases": 0,
            "C": 72,
            "bottom": "stem/MobilenetV3/Bottleneck_10/mul_2",
            "weights": {},
            "Nx": 1,
            "pad_mode": 1,
            "pad_value": 0,
            "Ny": 1,
            "n_parallel": 1
        },
        {
            "name": "stem/MobilenetV3/Bottleneck_10/compress/InstanceNorm/instancenorm/add_1",
            "training_momentum": 0.8999999761581421,
            "training_eps": 9.999999974752427e-07,
            "C": 72,
            "training": 1,
            "training_instancenorm": 1,
            "type": "batchnorm",
            "blob_batchnorm_params": 187,
            "bottom": "stem/MobilenetV3/Bottleneck_10/compress/Conv2D",
            "debug_info": "",
            "weights": {},
            "top": "stem/MobilenetV3/Bottleneck_10/compress/InstanceNorm/instancenorm/add_1"
        },
        {
            "bottom": "stem/MobilenetV3/Bottleneck_10/compress/InstanceNorm/instancenorm/add_1,stem/MobilenetV3/Bottleneck_9/compress/InstanceNorm/instancenorm/add_1",
            "alpha": 1,
            "operation": 0,
            "weights": {},
            "fused_relu": 0,
            "debug_info": "",
            "top": "stem/MobilenetV3/Bottleneck_10/add_1",
            "type": "elementwise",
            "name": "stem/MobilenetV3/Bottleneck_10/add_1",
            "beta": 0
        },
        {
            "pad_r": 0,
            "fused_relu": 0,
            "fused_tanh": 0,
            "debug_info": "",
            "pad_fill_mode": 0,
            "pad_b": 0,
            "pad_l": 0,
            "top": "stem/MobilenetV3/Bottleneck_11/expand/Conv2D",
            "blob_weights": 189,
            "K": 72,
            "name": "stem/MobilenetV3/Bottleneck_11/expand/Conv2D",
            "has_batch_norm": 0,
            "type": "convolution",
            "n_groups": 1,
            "pad_t": 0,
            "has_biases": 0,
            "C": 432,
            "bottom": "stem/MobilenetV3/Bottleneck_10/add_1",
            "weights": {},
            "Nx": 1,
            "pad_mode": 1,
            "pad_value": 0,
            "Ny": 1,
            "n_parallel": 1
        },
        {
            "name": "stem/MobilenetV3/Bottleneck_11/expand/InstanceNorm/instancenorm/add_1",
            "training_momentum": 0.8999999761581421,
            "training_eps": 9.999999974752427e-07,
            "C": 432,
            "training": 1,
            "training_instancenorm": 1,
            "type": "batchnorm",
            "blob_batchnorm_params": 191,
            "bottom": "stem/MobilenetV3/Bottleneck_11/expand/Conv2D",
            "debug_info": "",
            "weights": {},
            "top": "stem/MobilenetV3/Bottleneck_11/expand/InstanceNorm/instancenorm/add_1"
        },
        {
            "bottom": "stem/MobilenetV3/Bottleneck_11/expand/InstanceNorm/instancenorm/add_1",
            "alpha": 3,
            "operation": 2,
            "weights": {},
            "fused_relu": 0,
            "debug_info": "",
            "top": "stem/MobilenetV3/Bottleneck_11/expand/add",
            "type": "elementwise",
            "name": "stem/MobilenetV3/Bottleneck_11/expand/add",
            "beta": 0
        },
        {
            "bottom": "stem/MobilenetV3/Bottleneck_11/expand/add",
            "alpha": 0,
            "operation": 119,
            "weights": {},
            "fused_relu": 0,
            "debug_info": "",
            "top": "stem/MobilenetV3/Bottleneck_11/expand/Relu6",
            "type": "elementwise",
            "name": "stem/MobilenetV3/Bottleneck_11/expand/Relu6",
            "beta": 6
        },
        {
            "bottom": "stem/MobilenetV3/Bottleneck_11/expand/Relu6",
            "alpha": 0.1666666716337204,
            "operation": 3,
            "weights": {},
            "fused_relu": 0,
            "debug_info": "",
            "top": "stem/MobilenetV3/Bottleneck_11/expand/mul",
            "type": "elementwise",
            "name": "stem/MobilenetV3/Bottleneck_11/expand/mul",
            "beta": 0
        },
        {
            "bottom": "stem/MobilenetV3/Bottleneck_11/expand/InstanceNorm/instancenorm/add_1,stem/MobilenetV3/Bottleneck_11/expand/mul",
            "alpha": 1,
            "operation": 1,
            "weights": {},
            "fused_relu": 0,
            "debug_info": "",
            "top": "stem/MobilenetV3/Bottleneck_11/expand/mul_1",
            "type": "elementwise",
            "name": "stem/MobilenetV3/Bottleneck_11/expand/mul_1",
            "beta": 0
        },
        {
            "pad_r": 0,
            "fused_relu": 0,
            "fused_tanh": 0,
            "debug_info": "",
            "pad_fill_mode": 0,
            "pad_b": 0,
            "pad_l": 0,
            "top": "stem/MobilenetV3/Bottleneck_11/depthwise/depthwise",
            "blob_weights": 193,
            "K": 432,
            "name": "stem/MobilenetV3/Bottleneck_11/depthwise/depthwise",
            "has_batch_norm": 0,
            "type": "convolution",
            "n_groups": 432,
            "pad_t": 0,
            "has_biases": 0,
            "C": 432,
            "bottom": "stem/MobilenetV3/Bottleneck_11/expand/mul_1",
            "weights": {},
            "Nx": 5,
            "pad_mode": 1,
            "pad_value": 0,
            "Ny": 5,
            "n_parallel": 1
        },
        {
            "name": "stem/MobilenetV3/Bottleneck_11/depthwise/InstanceNorm/instancenorm/add_1",
            "training_momentum": 0.8999999761581421,
            "training_eps": 9.999999974752427e-07,
            "C": 432,
            "training": 1,
            "training_instancenorm": 1,
            "type": "batchnorm",
            "blob_batchnorm_params": 195,
            "bottom": "stem/MobilenetV3/Bottleneck_11/depthwise/depthwise",
            "debug_info": "",
            "weights": {},
            "top": "stem/MobilenetV3/Bottleneck_11/depthwise/InstanceNorm/instancenorm/add_1"
        },
        {
            "pad_r": 0,
            "debug_info": "",
            "pad_fill_mode": 0,
            "pad_b": 0,
            "pad_l": 0,
            "size_x": 12,
            "is_global": 1,
            "top": "stem/MobilenetV3/Bottleneck_11/gap/Mean",
            "top_shape_style": 0,
            "stride_x": 1,
            "avg_or_max": 0,
            "average_count_exclude_padding": 1,
            "type": "pool",
            "name": "stem/MobilenetV3/Bottleneck_11/gap/Mean",
            "pad_t": 0,
            "stride_y": 1,
            "bottom": "stem/MobilenetV3/Bottleneck_11/depthwise/InstanceNorm/instancenorm/add_1",
            "weights": {},
            "pad_mode": 0,
            "size_y": 12,
            "pad_value": 0
        },
        {
            "pad_r": 0,
            "fused_relu": 1,
            "fused_tanh": 0,
            "debug_info": "",
            "pad_fill_mode": 0,
            "pad_b": 0,
            "pad_l": 0,
            "top": "stem/MobilenetV3/Bottleneck_11/Bottleneck_11/Conv/Conv2D",
            "blob_weights": 199,
            "K": 432,
            "blob_biases": 197,
            "name": "stem/MobilenetV3/Bottleneck_11/Bottleneck_11/Conv/Conv2D",
            "has_batch_norm": 0,
            "type": "convolution",
            "n_groups": 1,
            "pad_t": 0,
            "has_biases": 1,
            "C": 108,
            "bottom": "stem/MobilenetV3/Bottleneck_11/gap/Mean",
            "weights": {},
            "Nx": 1,
            "pad_mode": 2,
            "pad_value": 0,
            "Ny": 1,
            "n_parallel": 1
        },
        {
            "pad_r": 0,
            "fused_relu": 0,
            "fused_tanh": 0,
            "debug_info": "",
            "pad_fill_mode": 0,
            "pad_b": 0,
            "pad_l": 0,
            "top": "stem/MobilenetV3/Bottleneck_11/Bottleneck_11_1/Conv_1/Conv2D",
            "blob_weights": 203,
            "K": 108,
            "blob_biases": 201,
            "name": "stem/MobilenetV3/Bottleneck_11/Bottleneck_11_1/Conv_1/Conv2D",
            "has_batch_norm": 0,
            "type": "convolution",
            "n_groups": 1,
            "pad_t": 0,
            "has_biases": 1,
            "C": 432,
            "bottom": "stem/MobilenetV3/Bottleneck_11/Bottleneck_11/Conv/Conv2D",
            "weights": {},
            "Nx": 1,
            "pad_mode": 2,
            "pad_value": 0,
            "Ny": 1,
            "n_parallel": 1
        },
        {
            "bottom": "stem/MobilenetV3/Bottleneck_11/Bottleneck_11_1/Conv_1/Conv2D",
            "alpha": 3,
            "operation": 2,
            "weights": {},
            "fused_relu": 0,
            "debug_info": "",
            "top": "stem/MobilenetV3/Bottleneck_11/Bottleneck_11_1/Conv_1/add",
            "type": "elementwise",
            "name": "stem/MobilenetV3/Bottleneck_11/Bottleneck_11_1/Conv_1/add",
            "beta": 0
        },
        {
            "bottom": "stem/MobilenetV3/Bottleneck_11/Bottleneck_11_1/Conv_1/add",
            "alpha": 0,
            "operation": 119,
            "weights": {},
            "fused_relu": 0,
            "debug_info": "",
            "top": "stem/MobilenetV3/Bottleneck_11/Bottleneck_11_1/Conv_1/Relu6",
            "type": "elementwise",
            "name": "stem/MobilenetV3/Bottleneck_11/Bottleneck_11_1/Conv_1/Relu6",
            "beta": 6
        },
        {
            "bottom": "stem/MobilenetV3/Bottleneck_11/Bottleneck_11_1/Conv_1/Relu6",
            "alpha": 0.1666666716337204,
            "operation": 3,
            "weights": {},
            "fused_relu": 0,
            "debug_info": "",
            "top": "stem/MobilenetV3/Bottleneck_11/Bottleneck_11_1/Conv_1/mul",
            "type": "elementwise",
            "name": "stem/MobilenetV3/Bottleneck_11/Bottleneck_11_1/Conv_1/mul",
            "beta": 0
        },
        {
            "bottom": "stem/MobilenetV3/Bottleneck_11/depthwise/InstanceNorm/instancenorm/add_1,stem/MobilenetV3/Bottleneck_11/Bottleneck_11_1/Conv_1/mul",
            "alpha": 1,
            "operation": 1,
            "weights": {},
            "fused_relu": 0,
            "debug_info": "",
            "nd_mode": true,
            "top": "stem/MobilenetV3/Bottleneck_11/mul",
            "type": "elementwise",
            "name": "stem/MobilenetV3/Bottleneck_11/mul",
            "beta": 0
        },
        {
            "bottom": "stem/MobilenetV3/Bottleneck_11/mul",
            "alpha": 3,
            "operation": 2,
            "weights": {},
            "fused_relu": 0,
            "debug_info": "",
            "top": "stem/MobilenetV3/Bottleneck_11/add",
            "type": "elementwise",
            "name": "stem/MobilenetV3/Bottleneck_11/add",
            "beta": 0
        },
        {
            "bottom": "stem/MobilenetV3/Bottleneck_11/add",
            "alpha": 0,
            "operation": 119,
            "weights": {},
            "fused_relu": 0,
            "debug_info": "",
            "top": "stem/MobilenetV3/Bottleneck_11/Relu6",
            "type": "elementwise",
            "name": "stem/MobilenetV3/Bottleneck_11/Relu6",
            "beta": 6
        },
        {
            "bottom": "stem/MobilenetV3/Bottleneck_11/Relu6",
            "alpha": 0.1666666716337204,
            "operation": 3,
            "weights": {},
            "fused_relu": 0,
            "debug_info": "",
            "top": "stem/MobilenetV3/Bottleneck_11/mul_1",
            "type": "elementwise",
            "name": "stem/MobilenetV3/Bottleneck_11/mul_1",
            "beta": 0
        },
        {
            "bottom": "stem/MobilenetV3/Bottleneck_11/mul,stem/MobilenetV3/Bottleneck_11/mul_1",
            "alpha": 1,
            "operation": 1,
            "weights": {},
            "fused_relu": 0,
            "debug_info": "",
            "top": "stem/MobilenetV3/Bottleneck_11/mul_2",
            "type": "elementwise",
            "name": "stem/MobilenetV3/Bottleneck_11/mul_2",
            "beta": 0
        },
        {
            "pad_r": 0,
            "fused_relu": 0,
            "fused_tanh": 0,
            "debug_info": "",
            "pad_fill_mode": 0,
            "pad_b": 0,
            "pad_l": 0,
            "top": "stem/MobilenetV3/Bottleneck_11/compress/Conv2D",
            "blob_weights": 205,
            "K": 432,
            "name": "stem/MobilenetV3/Bottleneck_11/compress/Conv2D",
            "has_batch_norm": 0,
            "type": "convolution",
            "n_groups": 1,
            "pad_t": 0,
            "has_biases": 0,
            "C": 72,
            "bottom": "stem/MobilenetV3/Bottleneck_11/mul_2",
            "weights": {},
            "Nx": 1,
            "pad_mode": 1,
            "pad_value": 0,
            "Ny": 1,
            "n_parallel": 1
        },
        {
            "name": "stem/MobilenetV3/Bottleneck_11/compress/InstanceNorm/instancenorm/add_1",
            "training_momentum": 0.8999999761581421,
            "training_eps": 9.999999974752427e-07,
            "C": 72,
            "training": 1,
            "training_instancenorm": 1,
            "type": "batchnorm",
            "blob_batchnorm_params": 207,
            "bottom": "stem/MobilenetV3/Bottleneck_11/compress/Conv2D",
            "debug_info": "",
            "weights": {},
            "top": "stem/MobilenetV3/Bottleneck_11/compress/InstanceNorm/instancenorm/add_1"
        },
        {
            "bottom": "stem/MobilenetV3/Bottleneck_11/compress/InstanceNorm/instancenorm/add_1,stem/MobilenetV3/Bottleneck_10/add_1",
            "alpha": 1,
            "operation": 0,
            "weights": {},
            "fused_relu": 0,
            "debug_info": "",
            "top": "stem/MobilenetV3/Bottleneck_11/add_1",
            "type": "elementwise",
            "name": "stem/MobilenetV3/Bottleneck_11/add_1",
            "beta": 0
        },
        {
            "pad_r": 0,
            "fused_relu": 0,
            "fused_tanh": 0,
            "debug_info": "",
            "pad_fill_mode": 0,
            "pad_b": 0,
            "pad_l": 0,
            "top": "stem/MobilenetV3/Conv2d_12/Conv2D",
            "blob_weights": 209,
            "K": 72,
            "name": "stem/MobilenetV3/Conv2d_12/Conv2D",
            "has_batch_norm": 0,
            "type": "convolution",
            "n_groups": 1,
            "pad_t": 0,
            "has_biases": 0,
            "C": 432,
            "bottom": "stem/MobilenetV3/Bottleneck_11/add_1",
            "weights": {},
            "Nx": 1,
            "pad_mode": 1,
            "pad_value": 0,
            "Ny": 1,
            "n_parallel": 1
        },
        {
            "name": "stem/MobilenetV3/Conv2d_12/InstanceNorm/instancenorm/add_1",
            "training_momentum": 0.8999999761581421,
            "training_eps": 9.999999974752427e-07,
            "C": 432,
            "training": 1,
            "training_instancenorm": 1,
            "type": "batchnorm",
            "blob_batchnorm_params": 211,
            "bottom": "stem/MobilenetV3/Conv2d_12/Conv2D",
            "debug_info": "",
            "weights": {},
            "top": "stem/MobilenetV3/Conv2d_12/InstanceNorm/instancenorm/add_1"
        },
        {
            "bottom": "stem/MobilenetV3/Conv2d_12/InstanceNorm/instancenorm/add_1",
            "alpha": 3,
            "operation": 2,
            "weights": {},
            "fused_relu": 0,
            "debug_info": "",
            "top": "stem/MobilenetV3/Conv2d_12/add",
            "type": "elementwise",
            "name": "stem/MobilenetV3/Conv2d_12/add",
            "beta": 0
        },
        {
            "bottom": "stem/MobilenetV3/Conv2d_12/add",
            "alpha": 0,
            "operation": 119,
            "weights": {},
            "fused_relu": 0,
            "debug_info": "",
            "top": "stem/MobilenetV3/Conv2d_12/Relu6",
            "type": "elementwise",
            "name": "stem/MobilenetV3/Conv2d_12/Relu6",
            "beta": 6
        },
        {
            "bottom": "stem/MobilenetV3/Conv2d_12/Relu6",
            "alpha": 0.1666666716337204,
            "operation": 3,
            "weights": {},
            "fused_relu": 0,
            "debug_info": "",
            "top": "stem/MobilenetV3/Conv2d_12/mul",
            "type": "elementwise",
            "name": "stem/MobilenetV3/Conv2d_12/mul",
            "beta": 0
        },
        {
            "bottom": "stem/MobilenetV3/Conv2d_12/InstanceNorm/instancenorm/add_1,stem/MobilenetV3/Conv2d_12/mul",
            "alpha": 1,
            "operation": 1,
            "weights": {},
            "fused_relu": 0,
            "debug_info": "",
            "top": "stem/MobilenetV3/Conv2d_12/mul_1",
            "type": "elementwise",
            "name": "stem/MobilenetV3/Conv2d_12/mul_1",
            "beta": 0
        },
        {
            "pad_r": 0,
            "debug_info": "",
            "pad_fill_mode": 0,
            "pad_b": 0,
            "pad_l": 0,
            "size_x": 12,
            "is_global": 1,
            "top": "stem/MobilenetV3/Mean",
            "top_shape_style": 0,
            "stride_x": 1,
            "avg_or_max": 0,
            "average_count_exclude_padding": 1,
            "type": "pool",
            "name": "stem/MobilenetV3/Mean",
            "pad_t": 0,
            "stride_y": 1,
            "bottom": "stem/MobilenetV3/Conv2d_12/mul_1",
            "weights": {},
            "pad_mode": 0,
            "size_y": 12,
            "pad_value": 0
        },
        {
            "pad_r": 0,
            "fused_relu": 0,
            "fused_tanh": 0,
            "debug_info": "",
            "pad_fill_mode": 0,
            "pad_b": 0,
            "pad_l": 0,
            "top": "stem/MobilenetV3/GAP_13/Conv2D",
            "blob_weights": 215,
            "K": 432,
            "blob_biases": 213,
            "name": "stem/MobilenetV3/GAP_13/Conv2D",
            "has_batch_norm": 0,
            "type": "convolution",
            "n_groups": 1,
            "pad_t": 0,
            "has_biases": 1,
            "C": 1280,
            "bottom": "stem/MobilenetV3/Mean",
            "weights": {},
            "Nx": 1,
            "pad_mode": 1,
            "pad_value": 0,
            "Ny": 1,
            "n_parallel": 1
        },
        {
            "bottom": "stem/MobilenetV3/GAP_13/Conv2D",
            "alpha": 3,
            "operation": 2,
            "weights": {},
            "fused_relu": 0,
            "debug_info": "",
            "top": "stem/MobilenetV3/GAP_13/add",
            "type": "elementwise",
            "name": "stem/MobilenetV3/GAP_13/add",
            "beta": 0
        },
        {
            "bottom": "stem/MobilenetV3/GAP_13/add",
            "alpha": 0,
            "operation": 119,
            "weights": {},
            "fused_relu": 0,
            "debug_info": "",
            "top": "stem/MobilenetV3/GAP_13/Relu6",
            "type": "elementwise",
            "name": "stem/MobilenetV3/GAP_13/Relu6",
            "beta": 6
        },
        {
            "bottom": "stem/MobilenetV3/GAP_13/Relu6",
            "alpha": 0.1666666716337204,
            "operation": 3,
            "weights": {},
            "fused_relu": 0,
            "debug_info": "",
            "top": "stem/MobilenetV3/GAP_13/mul",
            "type": "elementwise",
            "name": "stem/MobilenetV3/GAP_13/mul",
            "beta": 0
        },
        {
            "bottom": "stem/MobilenetV3/GAP_13/Conv2D,stem/MobilenetV3/GAP_13/mul",
            "alpha": 1,
            "operation": 1,
            "weights": {},
            "fused_relu": 0,
            "debug_info": "",
            "top": "stem/MobilenetV3/GAP_13/mul_1",
            "type": "elementwise",
            "name": "stem/MobilenetV3/GAP_13/mul_1",
            "beta": 0
        },
        {
            "nB": 1280,
            "top": "cell_leaf/fully_connected_1/MatMul",
            "has_biases": 1,
            "weights": {},
            "nC": 500,
            "blob_weights": 219,
            "type": "inner_product",
            "has_relu": 1,
            "bottom": "stem/MobilenetV3/GAP_13/mul_1",
            "blob_biases": 217,
            "has_tanh": 0,
            "debug_info": "",
            "name": "cell_leaf/fully_connected_1/MatMul",
            "has_prelu": 0
        },
        {
            "has_prelu": 0,
            "top": "leaf/logits",
            "has_biases": 1,
            "weights": {},
            "nC": 128,
            "blob_weights": 223,
            "type": "inner_product",
            "has_relu": 0,
            "attributes": {
                "is_output": 1
            },
            "bottom": "cell_leaf/fully_connected_1/MatMul",
            "debug_info": "",
            "has_tanh": 0,
            "blob_biases": 221,
            "name": "leaf/logits",
            "nB": 500
        }
    ],
    "transform_params": {
        "image": {
            "scale": 0.00784313725490196,
            "bias_r": -1.0,
            "bias_g": -1.0,
            "bias_b": -1.0,
            "bias_a": 0.0,
            "center_mean": false,
            "is_network_bgr": false
        }
    }
}
